force regression/model_Force_Prediction_5_subjects.pt (torch_old, 20046 bytes, 6 tensors)

fc1.weight f8 [32, 5]
0.3128983861216986 0.5223019502313166 -0.27255036685541967 -0.18814318648276715 -1.211812188998866 -0.47559559039579596 -0.2641652409777742 0.9008786136070405
0.15815492876169882 -0.7580103029149634 -0.28490608378319976 -0.09626158377493346 0.4127266062703429 0.3544638189567263 0.2704672058120868 0.2565258392738064
-2.475067535155953 0.10618774470351242 1.2218513612723414 -0.26626659360954186 0.1292149266399397 -0.536908769681 0.2612936264857967 -2.167568159297753
1.2342089007316284 -1.155794751296989 1.0491166013526123 -0.6602946856672223 0.0256680353121591 0.25565091696268644 -1.162825528059794 0.20965683054604697
-0.044723139443768684 0.7525829421068453 0.7278419573486453 -0.07090748710042276 0.1292692324308623 0.6696419106223055 -0.4478256413945023 -0.226045976127431
-0.24438921687243917 0.04215870865539708 0.03897412967656304 0.509491030716751 0.00684845826187421 0.1783739119464701 0.3196872815280366 -4.12750443832851
0.6522263678559629 0.21439915633104067 -1.279221110263821 -0.7529860771388355 0.760210745389847 0.26754314837527765 0.3093852344754729 -0.11897586738165146
-0.5315187458651328 -0.15932668692535415 0.8551679775207526 0.38526365075610364 -0.2609367472366724 0.6568861488741039 -0.2686274842799416 -0.3378811560904987
0.6303470639979313 0.10314094213971886 -1.5546334191486004 0.1866048265256244 0.07647470231988314 0.42110971952614495 -0.9100115534569411 0.09344478471656087
0.7115545858596602 0.7755647225216113 0.18718929434320003 0.11290071032039573 0.5633931159036669 -2.102691006407793 1.0784544398175124 -0.18488772883508583
-0.4166437665456075 0.009411189698293881 -0.11021939944942315 -0.5068205147983288 -0.0510056885258095 -1.019070962730513 0.5277659408989798 0.47900400112211233
0.24653721995180256 -0.5228567465351547 -0.017472420500647633 -0.06108416426665172 -1.1959444940758814 -0.6288971353210063 0.9859627551595348 0.21887678014558148
0.11737128417042365 0.21135645516578694 -4.072356286334144 0.35087341229912355 -0.021852735044949875 0.8028854361557981 -0.5129253574145602 -1.2753517876106872
-0.05447802961476285 0.34860427636064467 -1.4937338006512613 -1.155687576783573 1.3893740464360629 0.6141896263432731 -0.075034297889945 0.060163986260060975
0.21298125370103285 1.2265548375485003 -1.661460774855299 -0.3550101551174543 0.20860860845762447 0.21880412574193886 -2.3135110585620415 0.8949169366871985
0.08035313657562364 0.3591372113019002 -0.34965623501930176 1.1824249446520694 -1.4598562950186365 0.2794296657114306 0.08804150847086678 0.5430019978286584
-0.19313827523824037 -2.0293684135481924 0.18050718555443812 -1.203768690218648 0.42264797476723037 0.1310435905574845 -0.00788087535632926 0.39138659349077964
-1.1007659211314313 -0.32368014069085604 -1.4017823118397787 0.40517871510184217 -0.4142798588474531 0.9209700554816039 -0.5156204670909559 1.6382352360071113
-1.8249519731018662 -0.2899465336620297 -1.1955681873939688 0.0035379110426367296 0.23246192366752214 1.202287801220534 -0.653380648335414 0.08647369985388081
-0.10828274468563014 0.09758339382066039 0.25947446418016423 0.0972486355227844 0.17233943851278208 -0.033256757492685314 0.32722676261864003 0.007432296105226558
00000000: be49 d7f3 8606 d43f 422d 5c94 b2b6 e03f
00000010: 8009 0a18 7771 d1bf bf50 7470 1315 c8bf
00000020: 0e4f 8a2d 9563 f3bf d7ca b77c 2870 debf
00000030: f553 af53 15e8 d0bf 3975 e362 ffd3 ec3f
00000040: 51c9 5db3 6b3e c43f 54a0 a1d2 9e41 e8bf
00000050: 17f0 11ba e63b d2bf 42ac 2c62 99a4 b8bf
00000060: 37b1 07db 1c6a da3f ae33 8203 89af d63f
00000070: 559e e6ae 554f d13f 09a3 905a eb6a d03f
00000080: d516 3735 f0cc 03c0 3ed2 bcba 1e2f bb3f
00000090: facd 5303 b48c f33f e07f e409 830a d1bf
000000a0: 136b 095e 1d8a c03f 4ee5 d64c 5b2e e1bf
000000b0: 1e39 1ae7 08b9 d03f 3447 a0f9 2d57 01c0
000000c0: f730 11d5 51bf f33f 2758 1ba3 227e f2bf
000000d0: 9200 487d 2ec9 f03f ea39 1552 2221 e5bf
000000e0: 1d89 dfb0 b848 9a3f 8104 e3a9 955c d03f
000000f0: 2c88 dff0 ee9a f2bf 4305 4af7 08d6 ca3f
00000100: 6c24 928a f3e5 a6bf 280b 7cd2 2815 e83f
00000110: 8702 6f37 7b4a e73f a34a 233a fe26 b2bf
00000120: acb4 d5ea e48b c03f 94eb 44df b46d e53f
00000130: 0860 06e1 2ca9 dcbf 120b 6e15 13ef ccbf
00000140: a328 fb56 2548 cfbf 7342 d585 d395 a53f
00000150: 56a9 b3c8 6af4 a33f b314 5122 c04d e03f
00000160: 164f 3404 210d 7c3f a384 22d3 f4d4 c63f
00000170: 420b c7a4 c175 d43f fbdc 0286 9082 10c0
00000180: 9df7 f0d4 09df e43f fcab 5d7a 6e71 cb3f
00000190: 88f9 0e8e b077 f4bf bef2 f441 7618 e8bf
000001a0: b48c 307c a553 e83f b79a 224c 6d1f d13f
000001b0: 25ff fbb9 f7cc d33f 71dc 6ad3 3375 bebf
000001c0: 2b74 d699 3302 e1bf 05ba dc1e d164 c4bf
000001d0: 1438 013c 895d eb3f 2571 15df 28a8 d83f
000001e0: 2c31 ed0a 30b3 d0bf 5d82 d319 3605 e53f
000001f0: ab80 f254 3131 d1bf a9f9 d548 d89f d5bf
00000200: 0306 209b cd2b e43f 7c64 5edd 7167 ba3f
00000210: bd30 c84a c7df f8bf 1106 9abd aae2 c73f
00000220: 756b 6f99 d893 b33f 221f 592e 76f3 da3f
00000230: 0c8d a28c d01e edbf 3ce2 5656 ffeb b73f
00000240: 0bc1 721f 0ec5 e63f 1e2c e51b 6dd1 e83f
00000250: 2ec4 ae9c d1f5 c73f e871 859a 0fe7 bc3f
00000260: 1221 f3ff 5007 e23f 1beb 90a9 4fd2 00c0
00000270: 1ee0 5371 5941 f13f efa2 63ae 66aa c7bf
00000280: 3752 d99d 4aaa dabf b0d6 c37f 2c46 833f
00000290: df20 05ac 5637 bcbf c905 00a8 df37 e0bf
000002a0: 68b2 41e8 6a1d aabf 4fb1 935a 1d4e f0bf
000002b0: 3952 0366 75e3 e03f 673f de65 00a8 de3f
000002c0: c049 7818 888e cf3f 0191 5b12 3ebb e0bf
000002d0: 536a 874a 4ae4 91bf 5b53 a86f 6c46 afbf
000002e0: e031 9eb1 9622 f3bf d10e 98e2 ec1f e4bf
000002f0: 097f 8fc3 018d ef3f 761e 4a82 2704 cc3f
00000300: c961 0063 0b0c be3f 5826 5e73 ba0d cb3f
00000310: 53dc 2dc4 174a 10c0 0d15 b7c1 b574 d63f
00000320: 9c85 6239 9060 96bf c529 57cc 3cb1 e93f
00000330: 084f 6c70 e269 e0bf bbed aa46 d767 f4bf
00000340: 9a83 1757 8be4 abbf e3bd 8d4f 884f d63f
00000350: 97a1 eb69 55e6 f7bf ebdc aa41 b27d f2bf
00000360: 4baa b547 e03a f63f 6afa d500 71a7 e33f
00000370: b200 849f 7235 b3bf c895 c462 d0cd ae3f
00000380: 454c a73f f842 cb3f a957 20f7 f79f f33f
00000390: fc71 b9e4 5795 fabf f58c 7e83 7cb8 d6bf
000003a0: 1aaa 7ed7 afb3 ca3f d84f 250a c601 cc3f
000003b0: 9eaa fb15 1282 02c0 1aa8 f6d7 28a3 ec3f
000003c0: d32b b9ed 0592 b43f 135f 54a4 1afc d63f
000003d0: 6806 908b c460 d6bf 7f15 346b 36eb f23f
000003e0: b46f 3f46 925b f7bf d4d1 f0f6 2ce2 d13f
000003f0: 40a8 9267 e389 b63f aac6 cab9 4560 e13f
00000400: fd85 e047 c1b8 c8bf 93cc bd81 253c 00c0
00000410: c41c 5305 dc1a c73f 6d01 47f5 a242 f3bf
00000420: 0623 5617 aa0c db3f 58bc e54f 09c6 c03f
00000430: e4b2 5a2f d923 80bf 0cb0 c85a 7a0c d93f
00000440: 17f9 fcb9 bc9c f1bf 2471 a8e8 2cb7 d4bf
00000450: f468 174a b36d f6bf 2374 99b4 72ee d93f
00000460: 2e0b 49ab 8f83 dabf 0171 9c31 9678 ed3f
00000470: 8cb9 697e f67f e0bf dbe2 9c26 3636 fa3f
00000480: 18e4 13d7 0033 fdbf d0af eae7 7b8e d2bf
00000490: e9eb 8f1b 0c21 f3bf 7a51 2d87 89fb 6c3f
000004a0: 0bcf dbf3 4fc1 cd3f 7af3 2922 923c f33f
000004b0: 7f13 8e88 7ee8 e4bf 5c27 d6f0 2323 b63f
000004c0: a759 25ff 6ab8 bbbf 28a9 17ad 39fb b83f
000004d0: 6b42 73c8 3a9b d03f d0a6 265d 49e5 b83f
000004e0: 6f98 1cfe 370f c63f 11ab 9a9b 0707 a1bf
000004f0: 44ac f484 48f1 d43f 8455 4ccb 5371 7e3f

fc1.bias f8 [32]
-7.811880825253177 25.430513844763027 -15.69182675267978 7.254492381955894 -18.032820178684414 -1.3487278552837352 -0.6360086535778884 -3.2119964141271304
36.22705721207145 11.997933338129434 22.797492121804364 -0.8950720128603376 -5.764757832156033 23.91127791119595 -2.728298097873835 -8.23174563442902
-0.35077368052200536 14.191696981041007 26.79973923983697 25.266729094646006 14.219003343056187 -8.271399588858694 -5.738180737123267 4.723072316022562
4.476372173893601 3.391243238013451 -14.794050684292193 8.236062135004998 4.554140353287379 4.820174090095643 26.79124823030887 -33.08430701737249
00000000: f9d8 e2af 5d3f 1fc0 80bb c327 366e 3940
00000010: dc83 ba1d 3762 2fc0 ab53 a6a6 9904 1d40
00000020: 3319 3ae7 6608 32c0 a65d daa8 6394 f5bf
00000030: 7ae1 e2d1 2e5a e4bf c55c 0c2d 2bb2 09c0
00000040: 7b15 f235 101d 4240 43b5 551e f1fe 2740
00000050: a7f7 9571 28cc 3640 f099 d90f 6ea4 ecbf
00000060: 4de1 59ad 1c0f 17c0 5f27 5a82 49e9 3740
00000070: 66db 00f4 8dd3 05c0 11ba 215d a776 20c0
00000080: a3ee 8873 1373 d6bf 49a0 501b 2662 2c40
00000090: 7d6d f8b5 bbcc 3a40 7365 a25b 4844 3940
000000a0: 3048 c834 2170 2c40 8597 0ce3 f48a 20c0
000000b0: 2aed b1a6 e5f3 16c0 ebd6 b711 6de4 1240
000000c0: c863 6e1b cee7 1140 2e64 8022 4421 0b40
000000d0: 83cd b0cf 8d96 2dc0 3f57 db22 dd78 2040
000000e0: 7f0d 9b91 7037 1240 0af3 77b7 db47 1340
000000f0: c931 783e 8fca 3a40 1538 8592 ca8a 40c0

fc2.weight f8 [64, 32]
-0.4806727869515818 -0.7932159300322471 0.8517253627324738 -0.24012373373562082 -1.068581725863715 -0.011074139050602396 -0.059383867615986935 -1.719440811604176
0.9351334235942844 -1.4074947040365482 -5.53169147706649 0.2569465346513068 -0.18792273122401365 0.9083976702684383 -0.1335139898794119 -0.650319107032156
-0.12221254408359528 -0.21352283355281607 -0.5810345944867269 -1.7559162370530763 0.48766902689489633 -0.34206652741921256 -1.4171358614728993 0.5582522383822079
-0.4267217825426508 0.6878045886566448 0.49465744803887524 -2.373570198507693 -0.017518957336965683 -0.7478323558321701 -1.623985427818307 -1.03571329235302
0.26830471676222156 0.7170209022309071 -0.5704253380597593 -0.32434301447998265 0.12428398504481905 0.39879121224472225 -0.29750305776193503 -0.1962271287291457
0.7968053699467657 0.2477230648606044 0.45397902874533363 0.43086728457102225 -0.5211701790801425 0.34248888722636145 -0.26540131938126565 -0.38646795869218925
0.134670888601852 -0.459096307970535 -0.20557952335135474 -0.3559258014802281 -0.09527404391948922 -0.2952612590131633 -0.4517133457641757 0.11408415377930095
0.46640263324904235 0.2738977816297429 -0.3359043268443914 0.01347753668081007 0.16217070803324368 -0.18863687788344377 0.49296152901491097 -0.6586569829526914
-0.27973181989322143 -3.808539289359482 0.8554798542983532 -0.5441987179434354 0.2623215814625681 0.23375759279473252 0.4894625841363967 -0.8538675904967866
0.22580089660709102 -2.205119031370263 -0.08326107228643828 0.5355402432073376 -3.507511653092337 -1.068839006588452 -3.195242189754176 -4.466755863852642
-9.728968143463135e-05 0.1014949731987291 0.6994433099377889 -3.9967225216658915 -5.682837658383839 -0.6295242518861097 0.0952668894731803 2.2654057974946213
-0.3981084557949381 0.30449852192472615 -0.9393368212094618 -1.4766937587078006 -0.06387943164688545 0.6411884224196269 -4.4468321495536385 0.3540409098256438
-0.10519146729836126 -0.7914764767216679 0.6120102879790359 -0.3866109694945309 -0.5103521254473851 -0.9612198241518666 -0.2925366025181775 -0.0447204748217354
0.044383523228889527 0.04236296545960985 -1.4245678919667288 0.6786128303346366 0.16574923669697386 0.5085523485181124 -0.1828934037317451 -0.02769109219072576
0.08510227625886559 0.7141062213986065 -0.3898091123019936 -0.5123619591145036 -0.20701256322219308 -0.5225832501645842 0.1029141119166094 0.7368650527015044
0.20714983898292325 -0.950756080667268 0.3635986793589622 -0.27191623977839624 -0.1829764933436314 -0.7306073198371169 -0.6730893295670579 -0.17477435665728827
-1.3512781761752028 0.39298379619683815 -0.06349175284929837 0.4985345372133198 -0.007015784766241158 1.6687442571384976 -0.2806283335194185 -0.3886113091021216
-0.14978170272616176 0.3873089213618251 0.9256375636937983 0.3517534960326729 -0.9039632000338834 -0.7613131200296801 -0.057569065946172546 -0.4017390478245039
0.03223435580730438 0.13501973384077137 0.22804196317213374 0.547156574778994 -0.7201089738955054 -1.1400063448498312 -0.2593580754212927 -0.6111026551402209
1.0644615988895618 0.7043112030269232 -0.8090377258862466 -0.015337164122307501 -0.022233409655401843 0.7381830280561766 -0.34648793542902667 -3.5437712755850987
0.3118120282797555 -0.7295699343755891 0.9551864773945058 0.3134867908361271 0.23957062672304055 0.3031882767937377 0.38975802052106434 -0.23592586400203552
-0.9276109311745125 -4.578323304814204 1.0480266469817103 -0.2954070731549153 -2.0525075819904552 -0.60101681167364 0.1712725953128157 -0.7458451192390636
0.119135782122612 -0.7776938297184347 0.07354553367168414 -0.7773825755779294 0.6127540111344174 -0.4046954002809502 0.7640939511297953 -2.138195130876294
0.6634581618554617 -0.8012917487821096 -0.030003971359177345 0.7023158353242465 -0.5972244249259381 0.7916936447987142 -10.181093760455594 -0.4620900574646001
-0.05299609922955236 -0.034898524838846395 -1.3568903899096985 0.37350838227067906 0.073032474034146 -0.29220311839703617 0.15378120313468902 -1.252954972181709
0.6339650491737735 -0.8169841206982523 -5.1852104519212965 -0.03486664073569254 -0.07383880503613655 -0.11908733467348598 0.6598299116639083 0.8805791817255054
-0.1161208227276802 -11.083088923179718 -0.011054597202494361 -0.9018368344713154 -0.8734952844575024 -0.3835439133485808 -0.2807731269615267 0.21436661454365374
-0.7141673844691028 0.45865842974516935 -0.9197340065296838 -1.3766954485442193 -0.9622708715730074 -0.43666571819734523 -1.0654168259094285 -2.41718647917963
-0.30723701296788075 -0.10288867629232717 0.12537069836727716 -0.05590977850055886 0.26272593497198826 1.047051883482231 -2.248808944064705 -0.07790204467455605
-0.16993319967685586 0.15039185809169334 -0.2948292516805079 0.24320446226341946 0.5415490923961176 -1.4769006429904457 -0.5056088463714615 -0.12789030061210035
-0.02251186966896057 0.7482895736432179 -0.9755364582403699 -0.6466299818189596 -0.5062099258807359 0.03549338946263281 -0.9742381241360147 -0.2616277207775915
-0.4358126610394826 -0.20423051594294192 0.4815756582453616 0.6198024444842959 -3.4348671675409177 0.3072882493817376 -7.756553420503384 0.26966324104776673
00000000: a630 02cb 57c3 debf 83f3 c45f 0662 e9bf
00000010: c382 438c 5541 eb3f d1a6 b1df 5fbc cebf
00000020: 9c01 db26 e918 f1bf 01f7 6dc8 09ae 86bf
00000030: 342d a4f2 8f67 aebf 4ef6 535e d482 fbbf
00000040: a77c f7ed 9cec ed3f 3115 b22a 1985 f6bf
00000050: 0240 06bb 7320 16c0 1677 c9e0 cf71 d03f
00000060: 0e1d 6420 da0d c8bf db18 b2fd 9711 ed3f
00000070: 1d97 0b86 fc16 c1bf 5758 1504 6acf e4bf
00000080: 0000 0040 5249 bfbf 1780 8759 b754 cbbf
00000090: 9d48 a5dc d597 e2bf 9688 ca9f 3b18 fcbf
000000a0: 4e49 7226 f835 df3f 7598 1401 6be4 d5bf
000000b0: fc3c 30a7 96ac f6bf f2a6 58cc 33dd e13f
000000c0: 90bc 20e1 684f dbbf 6e35 cac4 7e02 e63f
000000d0: bc2f 83b6 77a8 df3f 60ce 4a5f 12fd 02c0
000000e0: 9105 4a53 7df0 91bf e312 e61e 3eee e7bf
000000f0: 2b90 da24 d8fb f9bf f204 eb19 4892 f0bf
00000100: 5ecd f68b e72b d13f 442a b4d1 d5f1 e63f
00000110: 5ad8 78a3 ec40 e2bf 452a f833 09c2 d4bf
00000120: f61d 2f43 13d1 bf3f 5e7d a193 cb85 d93f
00000130: 670a e343 4a0a d3bf 9765 3d76 f81d c9bf
00000140: 705a a6f9 6d7f e93f 7945 05af 63b5 cf3f
00000150: c1fc 610e fe0d dd3f 0587 0960 5493 db3f
00000160: f196 5915 6dad e0bf a55c 7882 56eb d53f
00000170: c8b2 c3d0 55fc d0bf af3a e21a e4bb d8bf
00000180: d254 224b e53c c13f a0a8 1c7b d561 ddbf
00000190: 2bbb c208 6e50 cabf 3240 4a03 7dc7 d6bf
000001a0: 3fb8 ca36 e163 b8bf 4730 cf7a 8fe5 d2bf
000001b0: f753 ce17 dfe8 dcbf a253 797d 9e34 bd3f
000001c0: b5aa 246e 8ad9 dd3f 0efd a28f 8a87 d13f
000001d0: 6a6b 98dc 747f d5bf 36a0 325a 1c9a 8b3f
000001e0: ee9b af7f 02c2 c43f 991a aad2 4025 c8bf
000001f0: 5c88 5383 ae8c df3f f80a 22cf b713 e5bf
00000200: 7be2 854a 20e7 d1bf f4a3 6a72 e377 0ec0
00000210: 0b25 9349 1760 eb3f 2bf3 026e 136a e1bf
00000220: b4ab 5a75 e0c9 d03f 2c5e 1fd0 c4eb cd3f
00000230: 71d0 dedf 5a53 df3f 5f89 0920 e252 ebbf
00000240: 18df 2a35 0be7 cc3f 092e 5c72 15a4 01c0
00000250: 7609 80fe 9850 b5bf 8d8e c84a 2523 e13f
00000260: c1f6 0245 620f 0cc0 d4c8 1fee f619 f1bf
00000270: 5159 1e23 db8f 09c0 72da c93f f5dd 11c0
00000280: 0000 0000 0081 19bf eed0 9816 93fb b93f
00000290: 69d7 b2ef d661 e63f e9ee 4da8 49f9 0fc0
000002a0: 78f1 8ccb 39bb 16c0 7c78 3c0b 1025 e4bf
000002b0: 10d0 ad2e 6963 b83f fd43 2313 8d1f 0240
000002c0: db9e 79e3 9b7a d9bf de35 565e e77c d33f
000002d0: 5dbe e017 0c0f eebf 94b7 7da2 89a0 f7bf
000002e0: 0679 cf05 675a b0bf 58b7 1b95 9d84 e43f
000002f0: 7b89 f45d 8ec9 11c0 236c 4934 9ba8 d63f
00000300: f85d ddf7 d3ed babf f154 e279 c653 e9bf
00000310: a0ef 7599 9695 e33f 4e3f 90ef 3bbe d8bf
00000320: 10b3 07fb cd54 e0bf f0f8 9f13 50c2 eebf
00000330: 9cb4 2c71 ebb8 d2bf e652 a421 9ae5 a6bf
00000340: 14a9 7fe9 6fb9 a63f 04d4 6b3e 99b0 a53f
00000350: 35dc aeb3 07cb f6bf 46dd 1d41 32b7 e53f
00000360: dda8 795f 4537 c53f a30e 2693 0f46 e03f
00000370: c74a d711 0d69 c7bf a514 66bd 0d5b 9cbf
00000380: 01d4 5845 43c9 b53f 6ade 584a f5d9 e63f
00000390: 4945 41eb a1f2 d8bf 9f8f 43e8 4465 e0bf
000003a0: 0042 733e 637f cabf e89d 1c82 00b9 e0bf
000003b0: 7a8d fa48 9458 ba3f 8862 dd04 6694 e73f
000003c0: 3bd3 e6cb e283 ca3f bb0c 1e04 986c eebf
000003d0: 4acb 2d65 3345 d73f 4f5e 465f 1367 d1bf
000003e0: 1380 6c13 c66b c7bf 6965 1d9a 2261 e7bf
000003f0: d6dd 38a2 f289 e5bf 0de1 0291 015f c6bf
00000400: 4f89 67dd d59e f5bf 8d7e 2182 a526 d93f
00000410: fcae 0dda fe40 b0bf 377e 5067 fde7 df3f
00000420: 484b 0762 95bc 7cbf 39c3 9c2d 2db3 fa3f
00000430: 2200 b38a d0f5 d1bf 4ec2 dcf7 01df d8bf
00000440: 64c0 5ffd 0b2c c3bf 41ad ac5b abc9 d83f
00000450: 8872 00ab d29e ed3f 1cb2 6d18 2183 d63f
00000460: 6ddb 9d3b 44ed ecbf e261 1155 ad5c e8bf
00000470: 460a 004f b179 adbf d7ac fbb1 17b6 d9bf
00000480: 0000 0080 0581 a03f 0c93 949e 5348 c13f
00000490: 4f50 f8a2 7a30 cd3f f5f2 4e81 4e82 e13f
000004a0: 79fe 8df9 210b e7bf e5cc 054b 773d f2bf
000004b0: 3bd4 f89c 5299 d0bf b76e ca27 278e e3bf
000004c0: b141 b1e2 0808 f13f 2aa0 e6a5 b789 e63f
000004d0: 2b2c bd15 a3e3 e9bf 1ab0 8c52 1769 8fbf
000004e0: d5e2 64dd 5ac4 96bf 3bd5 7e03 329f e73f
000004f0: 2414 c8bb db2c d6bf 3b23 29c1 a459 0cc0
00000500: a680 fd6f baf4 d33f 7937 090c a358 e7bf
00000510: 02b5 3f3b e390 ee3f 4ba0 97e6 2a10 d43f
00000520: 8dc8 6d13 40aa ce3f 5005 57cd 6f67 d33f
00000530: 7e77 df9f cbf1 d83f 2cab 1597 d132 cebf
00000540: fbcf 991e fdae edbf 3fc4 02fc 3350 12c0
00000550: bdf7 e196 b7c4 f03f b646 8d11 f3e7 d2bf
00000560: 4287 5b18 896b 00c0 d180 cf9b 873b e3bf
00000570: 34e8 c8a9 42ec c53f 7c6a 6095 f6dd e7bf
00000580: 0000 00c0 ae7f be3f 2922 9e2b dee2 e8bf
00000590: 0f02 e34d e1d3 b23f 6fcc 526c 51e0 e8bf
000005a0: a615 ca4c ae9b e33f 8417 4389 87e6 d9bf
000005b0: 8890 6528 7573 e83f 17a4 7c0c 061b 01c0
000005c0: 17df 6d9c 0c3b e53f a45c f297 2ea4 e9bf
000005d0: 887e f36e 5cb9 9ebf 26c7 050f 5f79 e63f
000005e0: ebbc ad65 761c e3bf 8e91 1be9 8d55 e93f
000005f0: 3755 4552 b85c 24c0 8080 272d e292 ddbf
00000600: bb53 0302 4e22 abbf 1415 b92d 38de a1bf
00000610: 95b3 8eb2 d2b5 f5bf 8c9a a8b3 8fe7 d73f
00000620: d6ca 8597 41b2 b23f b47c 53b5 74b3 d2bf
00000630: a0fc 193b 1aaf c33f b318 4e83 1a0c f4bf
00000640: b944 2012 7149 e43f 8b02 f8e1 bb24 eabf
00000650: 7484 07cf a7bd 14c0 bcc3 5c53 0ada a1bf
00000660: 3451 ce94 19e7 b2bf 9059 caef 817c bebf
00000670: 199c 709e 531d e53f 6595 6164 b42d ec3f
00000680: 0000 0020 18ba bdbf f96e 9fa1 8a2a 26c0
00000690: 442e a4eb caa3 86bf 273d cceb d8db ecbf
000006a0: ea90 fe61 acf3 ebbf 695e 1ac5 fb8b d8bf
000006b0: 724e 79d9 2ff8 d1bf 8edc 687f 5d70 cb3f
000006c0: da44 058f 75da e6bf e692 f2e2 a85a dd3f
000006d0: a30c e202 766e edbf a4ca 80ce f106 f6bf
000006e0: 5d95 6948 ecca eebf e848 bcc4 54f2 dbbf
000006f0: d739 7e83 f20b f1bf 7747 63dd 6556 03c0
00000700: 7056 b46e c5a9 d3bf 04e5 cd8b e956 babf
00000710: 029c aea4 250c c03f 7b7d 5fdc 34a0 acbf
00000720: 6e01 a170 80d0 d03f 9857 cc79 b9c0 f03f
00000730: 7eae 2d8b 8ffd 01c0 2633 2b6e 63f1 b3bf
00000740: 21f1 8eff 5ec0 c5bf d553 0b58 0a40 c33f
00000750: c6cd 7782 7bde d2bf ced1 d4e5 5221 cf3f
00000760: 43a2 20c3 5e54 e13f 895d 9191 62a1 f7bf
00000770: 997a 779a f22d e0bf df62 4d99 b55e c0bf
00000780: 0000 0000 5a0d 97bf 6f88 d7f9 fcf1 e73f
00000790: 7f56 063c 9837 efbf f2d0 105c 31b1 e4bf
000007a0: e12f 9228 df32 e0bf a0b1 ee85 302c a23f
000007b0: 3ec7 356e f52c efbf a5df 1d32 82be d0bf
000007c0: 583a 96c9 5ae4 dbbf 6bfa 68bd 3924 cabf
000007d0: ffa9 adb5 22d2 de3f 1b4f a1ef 6bd5 e33f
000007e0: 068a 35a3 9b7a 0bc0 b689 6255 9caa d33f
000007f0: b5f4 9af0 b506 1fc0 0af2 4e9c 2942 d13f

fc2.bias f8 [64]
4.655075980540877 18.190199102107368 -11.85906469637275 9.374786055388483 -6.084044868609607 7.410564806943069 7.7663050864232925 -20.904940578567142
0.8482239434535006 4.475392223229696 6.831794931957645 -0.5974355105713408 14.36848876971398 -5.867883180656615 9.279252133494293 -10.970410478754637
-0.7694658692405809 -20.091902038381132 -26.370481538958053 -16.12440604008059 11.348700225744814 -0.6897892159557618 -5.74374397846871 -0.24343549087662544
-17.4316819451006 9.696818829017483 -5.289188245935548 0.10781514801992717 -0.41332321199544936 22.88726377601509 5.6760370458126825 0.8206651989355702
-26.441380759964716 17.910905521150372 -37.54394959550421 -0.23680922036436988 -23.13946967102877 -1.9201902947646574 13.280299610546539 13.55774132887828
-27.09590849894252 12.067092983351776 -0.18393562895994 7.233352847280158 -9.332984050709346 3.913501054637877 6.4656763700023765 -13.803227929717762
14.293545106600126 -1.8447825432575333 -0.19560821690180716 -1.8417614748228646 14.784017304187902 8.868844363442065 -1.0744009095506448 15.527372456911053
-8.743219210809453 11.385963103917483 11.055311703541078 -2.9503027349927793 -6.557219873693981 -1.3835248731619976 22.032511414137797 -6.241614559453093
00000000: d645 e33c cc9e 1240 9b47 6be3 b030 3240
00000010: 6523 f053 d7b7 27c0 e0c7 35f5 e3bf 2240
00000020: ad4c a8db 0f56 18c0 0dd6 ca19 6ba4 1d40
00000030: 36c9 d347 b210 1f40 eac4 8d2f aae7 34c0
00000040: 5c24 1a8a a624 eb3f 572d 0e38 cde6 1140
00000050: 4ff2 f60c c253 1b40 61ef 6b13 311e e3bf
00000060: caba 5d8f aabc 2c40 abac 565e b678 17c0
00000070: 7664 b922 fa8e 2240 cce4 6ba4 d9f0 25c0
00000080: 26d9 f8e2 769f e8bf 5f48 59e4 8617 34c0
00000090: ba98 cde0 d75e 3ac0 2d92 0113 d91f 30c0
000000a0: 145d 03d6 88b2 2640 373b 75d5 c012 e6bf
000000b0: eb7a 8005 98f9 16c0 a11a 00e8 e428 cfbf
000000c0: 127b 3cb5 826e 31c0 f5bb 0370 c564 2340
000000d0: 1fb9 aaf6 2028 15c0 ee4c c206 c699 bb3f
000000e0: 29ae 8c33 e373 dabf 08e9 04b8 23e3 3640
000000f0: 8699 2a0e 43b4 1640 7098 cca9 e342 ea3f
00000100: d021 5954 fe70 3ac0 3116 af1a 31e9 3140
00000110: 77ae ed23 a0c5 42c0 cf98 6db8 c34f cebf
00000120: 3ada cb48 b423 37c0 dac5 6175 19b9 febf
00000130: 02c2 386e 838f 2a40 d051 7e45 901d 2b40
00000140: d85d 9a75 8d18 3bc0 eb92 f202 5a22 2840
00000150: 7ddf 79e3 338b c7bf affc 7d0c f4ee 1c40
00000160: c2c5 afe2 7caa 22c0 e13f 14a4 d94e 0f40
00000170: 87b8 2e44 dadc 1940 3fbe f2b0 409b 2bc0
00000180: 2b7f 518b 4b96 2c40 6f5d 38b3 3a84 fdbf
00000190: 8f08 36a7 b009 c9bf d459 56e1 da77 fdbf
000001a0: 62f8 51b7 6a91 2d40 6098 1c2b d9bc 2140
000001b0: b600 1502 bf30 f1bf 007d 3ec3 030e 2f40
000001c0: fe5e 783a 877c 21c0 9493 b9f4 9cc5 2640
000001d0: 0797 cbd0 511c 2640 2abf 0052 389a 07c0
000001e0: a0c9 b8d8 973a 1ac0 e9ee 36fa ea22 f6bf
000001f0: f377 04ab 5208 3640 9b5a 9cce 69f7 18c0

fc3.weight f8 [1, 64]
-0.06587866423982443 -0.06335812177989544 -0.13435066903213874 0.06544753123205152 0.03286799918589724 0.03207735299412563 0.07893444544874759 0.06696046163785858
-0.0953949012796759 -0.047530397446230534 0.0673718907959795 0.022181208480276375 0.05856868318106492 -0.06153336540858037 -0.0714346240883842 0.05951866038032202
0.047502118563008545 -0.03019771321977293 0.06484213298106635 0.05104550992716408 0.06586846424058793 0.052890812303763184 -0.055850707072110664 0.0005092548605143136
-0.0414252370385697 -0.04753404315183321 0.0961148777831192 -0.05442861279161202 -0.020566995888231583 0.10910200099867981 0.0583383603356333 0.04251629738933308
0.07191385032356576 0.08847147494423317 -0.20196580961364857 0.007111524797218776 -0.07944063468298497 0.13096896742474337 -0.03108193193585956 -0.050929574482457045
0.06806593782482741 0.06962251618920566 -0.030686600891420068 -0.07760190484095246 -0.06575369141351509 -0.037448027945819695 0.10831470660563774 0.030801318727002952
0.04442561357528314 -0.03868264609410624 0.019571542170924286 0.047930078389470304 -0.04845303592213252 -0.04009938222079533 -0.028117116562839745 0.1006015624251864
-0.05688331794996272 0.18420221784174945 -0.06877977289489191 -0.06630035398464897 -0.04320179638682601 -0.018161764949662804 -0.1208150436165029 -0.02823498241806723
00000000: b509 6a94 6cdd b0bf fa0a fbe4 3c38 b0bf
00000010: 2729 d818 6732 c1bf a2df 3e5e 2bc1 b03f
00000020: 9240 2d0b 13d4 a03f 02a2 1a5c 716c a03f
00000030: c6f2 ba3d 0c35 b43f 0513 dc20 5224 b13f
00000040: 1a8c 33dd cc6b b8bf ede3 317d e755 a8bf
00000050: 306f a3c3 483f b13f febf 08b4 abb6 963f
00000060: 1438 aae5 b6fc ad3f e4d8 1520 4d81 afbf
00000070: 69fc 421e 8a49 b2bf 2ba1 abd7 3a79 ae3f
00000080: 4d0b 709b 3252 a83f 9e8a c53a 26ec 9ebf
00000090: e97a 8e78 7e99 b03f 2358 7d17 a322 aa3f
000000a0: 2a46 c073 c1dc b03f d702 352a 8114 ab3f
000000b0: 0a98 aac0 7698 acbf 0387 517c f0af 403f
000000c0: 9f91 9e4c b035 a5bf 244b 91d1 6156 a8bf
000000d0: 06cf bc10 fc9a b83f 9d30 d02f 11de abbf
000000e0: 9220 deba 830f 95bf 5ead 37d6 1bee bb3f
000000f0: 7bd4 7c8b 86de ad3f b51b ab35 b2c4 a53f
00000100: 46e7 4433 f268 b23f 6bad 830b 11a6 b63f
00000110: 42b3 9901 04da c9bf 8626 dc66 f920 7d3f
00000120: edd8 efaf 3856 b4bf 27a9 f053 97c3 c03f
00000130: 0fe1 a424 f1d3 9fbf 6f4a 9af1 7013 aabf
00000140: 41e0 edf0 c46c b13f ef0d 19fe c7d2 b13f
00000150: a326 04ed 4e6c 9fbf a331 66eb b7dd b3bf
00000160: d25a 36e2 3bd5 b0bf 306b a74e 632c a3bf
00000170: 6c0b 8c3a 83ba bb3f 98b2 6c82 618a 9f3f
00000180: da36 d23a f4be a63f 343a cb37 36ce a3bf
00000190: 24c2 39f6 8f0a 943f 24e0 5a8e 4a8a a83f
000001a0: a9dd 5a19 d6ce a8bf 1ecc 74fe e787 a4bf
000001b0: 7880 61c0 bbca 9cbf f3ec 8a24 06c1 b93f
000001c0: 32ed 906c cf1f adbf ce90 bd32 f093 c73f
000001d0: e9b9 351b 8d9b b1bf 51c9 135c 0ff9 b0bf
000001e0: b540 38bd 8b1e a6bf fc5a fc69 ff98 92bf
000001f0: 0b9c 3215 bced bebf 05dd 5a98 a1e9 9cbf

fc3.bias f8 [1]
6.418605459972622
00000000: ad09 e2e8 a6ac 1940
