model_Spinetrack_Carrying_Different_Weight.pt (torch_old, 153154 bytes, 7 tensors)

conv1.weight f8 [32, 1, 3, 3]
-0.35946962445368474 0.17338329176230055 -0.017008559926274276 0.18764063909463444 -0.5117641537329836 0.18273474024558092 -0.392369149517566 -0.24187702071120853
-0.06367117953862027 -0.043085816598712974 -0.3240990306678027 0.3930526697137615 -0.14484427450453455 -0.022396998872137648 -0.2971320375601034 0.09613279992596999
0.16817944018047273 0.25902811356243277 -0.05592726301889604 -0.26690496835190464 -0.2765307655152184 -0.32570660451068073 -0.16879521654158394 -0.186702052506658
0.18927219709438026 0.28619746535378865 -0.10662519205410784 -0.0011685391178469886 -0.23639982772708557 0.05431783916619389 -0.12279257822355276 -0.1563430085302159
-0.0917983052560219 0.6434289059775349 -0.16579720647528742 -0.06442792981420728 0.06038136964237314 -0.0035242735683550476 -0.0794801583541282 -0.5171351764524991
-0.2511509197115532 -0.18743507304396917 -0.38177168293406966 -0.31734184573676405 0.018376063136052903 0.6302564727834071 0.040833736600851864 0.08650910063100466
0.18403703251546902 -0.5654409084728396 0.06422666916246884 -0.024531322305672027 0.00685116367966345 -0.03373973628815077 0.17827464087075043 0.18882220794349683
0.1846048732892843 0.1311383368171962 -0.2316795963247063 0.2921436399505168 0.2613206161516775 0.1531623780093403 0.1258908486671853 -0.1575544911586736
-0.47829579236062514 0.00017374167922394856 -0.11989732776339947 -0.02401980487695554 0.2863757206022648 0.1459379423277403 -0.441020620856789 -0.11829967829878597
0.4532293069630619 -0.30438475020008554 -0.08109751911992463 -0.6147316850737601 -0.48190736752197827 0.2537336811324178 0.16074812245206208 -0.12606449046084534
-0.10424356135492782 -0.12980833719571472 0.02045289682530277 0.2744064098792511 -0.858720860635939 -0.033018978699407515 -0.15502189607794017 0.4103625210057762
-0.043530707291870537 0.4268052369163481 0.1868764267550848 0.14735620003107308 0.33029942272304996 -0.15641485761931276 -0.1576509904957633 -0.5882420095613086
0.05835653927756908 -0.02173920184240474 -0.42314363314319425 0.6657622705365839 0.0008079142007344583 -0.056394495178232334 -0.2978530372107491 -0.014130301467403867
-0.26307536179884544 -0.03436787231726936 0.1846000229396004 -0.0038607456173229224 -0.8275488448174807 -0.027815032824124186 -0.126717590660732 0.46759869240908
-0.24275980627889954 0.02147811822495349 -0.0924099311164199 0.012642149440292728 -0.29948066753224023 0.6391769284218932 -0.01037702476602216 -0.4614470033814275
0.1121604668506218 -0.23992861083868383 -0.043406796535854796 0.5127385603631645 0.0016543251662594384 0.19505954056159266 0.5500693042255486 0.19144864090589597
-0.13701574721376852 0.1187895477149586 -0.09620665213659146 -0.09561405701501767 -0.41610762943670826 -0.30110963618871484 0.18116263999148885 -0.041634304316312216
-0.07402808755581676 -0.11955619418820725 0.7532942966167828 0.01578781293292963 0.1911129685563685 0.29991714597435154 -0.13587917624494447 0.240613284526018
-0.43947625025990794 0.011471543389808199 0.01665482882426668 -0.11049343212245161 -0.07369819978460644 -0.16877777112930353 0.61609126129692 0.007094330661647151
-0.08133710016187973 0.0005634510580752984 0.09506804142789047 0.15854910309178843 0.38979085866484914 0.0313733903484767 0.437264332742957 -0.12331831298204382
0.10689913402891205 0.07616233641159482 0.09790565534408016 -0.15578420778100477 0.022645365912969773 -0.7826021211005048 0.1809444861709792 -0.263457825945311
0.102411377516299 0.008428682620753627 -0.08554919186951389 0.07376530292676439 0.05546350601068717 -0.13421953437791362 0.21600643509174153 0.11552499727458658
0.21667844550177018 0.38547060233181585 -0.24420572833107265 0.08150792484404078 -0.04165004706155251 0.24251523338437211 -0.20074286006030329 -0.13882406090290367
0.09391947038721599 -0.14189836114891016 0.04357487157243611 -0.049256131502696594 -0.4088820837199932 -0.1848442702147353 -0.3797611149542007 -0.12941438206022082
-0.1454171219123806 0.1467670470014919 0.3801779197116612 -0.09087376169827359 0.2099856171643084 -0.1819818443784542 -0.20212432518551532 -0.31606614064211985
0.22339788719739934 -0.026622486347823604 0.1084447421076981 0.10986229220076574 -0.6399619689798475 -0.12258922331870607 -0.14740682970435462 -0.569231130340325
-0.22708023439716318 -0.4750407228753667 0.10652507732681568 0.070649778955323 -0.22325076174358685 -0.3009345980092712 -0.05178854981959914 0.29937645275662794
0.22648776180083893 -0.14584740210738856 0.20584889226704048 0.3610812674992528 -0.1813129046932409 0.026882609454900168 0.27588267857027376 -0.33567123762642215
-0.2453144826057561 -0.21148975177552934 0.09772793944783541 -0.0012805741815761764 -0.4110702850072178 0.14723849031731598 -0.5194326878626305 0.12966301618057066
-0.1331575651715194 -0.004618591635863377 0.37327245868624775 -0.18993399131833302 0.13205770001076592 0.162537060033636 -0.3004142476036395 -0.1500424698129841
-0.4768044636953087 -0.24917613350220785 -0.10139390454596199 -0.007649447018688191 0.09576854998870414 -0.26639645147668345 -0.2455045899420386 -0.15475949838511427
0.20614775926175977 0.47595963782038286 -0.4010615079964761 0.13738911226622857 -0.6661093479761314 -0.11212371133195995 0.1528977365157868 -0.14135510362799877
00000000: 4bc6 3be2 8c01 d7bf 365d e577 6c31 c63f
00000010: 65a7 8a22 b16a 91bf 6bef 27c4 9b04 c83f
00000020: 848b f137 5f60 e0bf 5552 991a da63 c73f
00000030: 33c9 487e 931c d9bf 24e5 cd82 d3f5 cebf
00000040: 23ed d021 c14c b0bf a904 6d1a 580f a6bf
00000050: 7d8b 58dc 09be d4bf 8cab 8162 c627 d93f
00000060: dd41 01d7 418a c2bf 22ce bc26 3def 96bf
00000070: f886 fa17 3604 d3bf 8e44 c1bf 289c b83f
00000080: dda4 b765 e786 c53f bbb1 1fa7 ea93 d03f
00000090: feec 3d8b 7fa2 acbf af86 8d93 f814 d1bf
000000a0: fe71 8e18 aeb2 d1bf adbb 9d83 60d8 d4bf
000000b0: 3d38 62e7 149b c5bf 9e5b ce54 dae5 c7bf
000000c0: b0fd 4744 123a c83f 9c20 792c 0f51 d23f
000000d0: 3a57 cde0 c94b bbbf 2f5e e552 3525 53bf
000000e0: 4016 6f7c 5942 cebf 2bcb 9d3d 8ccf ab3f
000000f0: eb63 a99b 556f bfbf 353a 4c36 0c03 c4bf
00000100: 7420 e7fe 1780 b7bf b02f 8f37 f896 e43f
00000110: ad2d cac5 d738 c5bf c641 804b 597e b0bf
00000120: fba8 cd8f 4eea ae3f f6d6 fbf6 efde 6cbf
00000130: 7cd7 cfc8 cf58 b4bf 8530 cf11 5f8c e0bf
00000140: 515f a14e db12 d0bf aa71 6c5a dffd c7bf
00000150: cd67 2f7f f26e d8bf 10de 452c 544f d4bf
00000160: 2458 cbb8 2cd1 923f 374e 569f 0f2b e43f
00000170: ae5b 8cd6 28e8 a43f d53b 04de 7525 b63f
00000180: f112 f485 868e c73f 96c3 3688 1718 e2bf
00000190: ed74 95b3 2871 b03f 853a 1f2c bd1e 99bf
000001a0: 9762 193f f70f 7c3f d4d5 ddaf 5546 a1bf
000001b0: 857d 1f14 b4d1 c63f 351b f07b 532b c83f
000001c0: 73d7 baea 21a1 c73f 3bdb f019 24c9 c03f
000001d0: 72bb ae50 ada7 cdbf 7f99 d43c 7bb2 d23f
000001e0: ed16 091b 7ab9 d03f e08b 4326 d39a c33f
000001f0: 5a14 f2fa 301d c03f 74a5 6edd be2a c4bf
00000200: ee35 80f4 659c debf 5e76 12a9 cdc5 263f
00000210: c120 9f5d 97b1 bebf 407e 9cd1 a598 98bf
00000220: f4ba 96d4 fa53 d23f e186 c530 18ae c23f
00000230: ef41 dc8d ae39 dcbf e1ac 6b41 e348 bebf
00000240: a7af bf7e b501 dd3f fbab e02c 0a7b d3bf
00000250: c424 6898 cec2 b4bf de9d 66c8 e1ab e3bf
00000260: 9855 cdff 91d7 debf 14e0 9631 2c3d d03f
00000270: ed99 69fc 6493 c43f 94ad db97 e122 c0bf
00000280: 2686 d6be b4af babf 647a 8041 8f9d c0bf
00000290: 307e e4ab 9af1 943f 3ba0 0fe7 df8f d13f
000002a0: ed60 9a2b a47a ebbf c192 5213 dde7 a0bf
000002b0: f9c9 e8ea c1d7 c3bf bc54 ce29 6143 da3f
000002c0: 4973 6128 a849 a6bf c64d 94e9 c650 db3f
000002d0: 0e39 a716 91eb c73f 8886 ff65 91dc c23f
000002e0: 67ec 9e30 a023 d53f 51ae 0aed 6605 c4bf
000002f0: 6a3f 2e5c e82d c4bf 5a5f 26e8 e0d2 e2bf
00000300: 7ae8 6887 e8e0 ad3f 7f2c d123 cd42 96bf
00000310: be14 7708 c914 dbbf cdb0 5bad ec4d e53f
00000320: 4ff8 f988 4679 4a3f 4c0c ee40 bddf acbf
00000330: 7167 752f 0610 d3bf 6a20 7bf5 58f0 8cbf
00000340: 5bcd d30a 3ad6 d0bf 6284 456f aa98 a1bf
00000350: 4be7 ae3a f9a0 c73f 9437 4405 92a0 6fbf
00000360: 55ad 0ab7 477b eabf f361 4441 8b7b 9cbf
00000370: fd9d db31 4838 c0bf bf28 e310 23ed dd3f
00000380: 4e26 60da c012 cfbf 0056 6c1d 5cfe 953f
00000390: 9e7b f85f 2da8 b7bf 3a78 2d93 20e4 893f
000003a0: 4274 35f6 b02a d3bf a1c0 7d2c 2374 e43f
000003b0: e7af ffaf 8c40 85bf 5411 1703 5988 ddbf
000003c0: 130b 0761 8cb6 bc3f 4aa3 7610 fbb5 cebf
000003d0: d35b 1767 6a39 a6bf a00d 85b2 5a68 e03f
000003e0: 902e 1b1f be1a 5b3f c70e be05 b6f7 c83f
000003f0: a1d4 05f1 2a9a e13f e8f8 c699 6381 c83f
00000400: 50fa a864 bb89 c1bf 55d9 8ae6 fd68 be3f
00000410: 4495 95c8 ffa0 b8bf 6fd9 eaaf 297a b8bf
00000420: effd 02e5 81a1 dabf 2739 fc59 6145 d3bf
00000430: a49e 025f 5630 c73f b14c dc6e 1751 a5bf
00000440: eda3 0937 81f3 b2bf 4d94 1218 3c9b bebf
00000450: de6f 07a4 fc1a e83f 3fa2 e330 ae2a 903f
00000460: 1442 e5c6 6376 c83f 410c 5eaf d731 d33f
00000470: 6ff8 1625 7d64 c1bf aedd 0286 6acc ce3f
00000480: 810a 8ffe 6020 dcbf 570c 8d7d 647e 873f
00000490: b499 7ba4 f60d 913f 8483 632d 4c49 bcbf
000004a0: 5f55 d99d e2dd b2bf 9264 a58f 829a c5bf
000004b0: a8e4 5305 05b7 e33f 324d dce2 f10e 7d3f
000004c0: 6491 2519 82d2 b4bf 68ab 04ef 9176 423f
000004d0: 26db d310 6156 b83f 4670 4b46 564b c43f
000004e0: c1b2 8f5b 55f2 d83f 99cf 054b 2c10 a03f
000004f0: 17a6 358a 23fc db3f 2c7a 41f9 c991 bfbf
00000500: 50f9 9fdc bd5d bb3f cd22 13f8 5f7f b33f
00000510: 7ad8 cb53 5810 b93f 288b d3a6 bcf0 c3bf
00000520: cd35 02c8 5830 973f 5205 7d9a 130b e9bf
00000530: fe78 3f5d 3029 c73f 1edd 9336 7edc d0bf
00000540: 76ba 2bcd a137 ba3f 1bd1 a2a1 0e43 813f
00000550: dd5e 4745 8de6 b5bf 7e65 a66b 48e2 b23f
00000560: 00f3 df70 b665 ac3f 2a99 510f 1b2e c1bf
00000570: e3e7 384f 19a6 cb3f db32 2ad5 0b93 bd3f
00000580: f4cf 968a 1ebc cb3f 9a69 a5e3 8cab d83f
00000590: bbc2 5620 2242 cfbf 47ea 910f b4dd b43f
000005a0: 7030 03ac 2753 a5bf b976 153a bd0a cf3f
000005b0: 2ca8 6e29 f1b1 c9bf c0e9 bca0 fcc4 c1bf
000005c0: c44e c53d 1b0b b83f dfca 3eba b929 c2bf
000005d0: 8f7a a910 724f a63f 11f5 dc83 1938 a9bf
000005e0: 65da 5fc2 1f2b dabf 696f b61f faa8 c7bf
000005f0: 9954 4190 014e d8bf 4c54 4a85 a690 c0bf
00000600: fa30 723b 079d c2bf 583e 8039 43c9 c23f
00000610: 5faa f4c4 d554 d83f 43ff 8eba 8043 b7bf
00000620: 38f0 2c07 cfe0 ca3f cf1d 095b 2e4b c7bf
00000630: feec 32bb 35df c9bf e792 5b7a 6d3a d4bf
00000640: de10 c14d 4d98 cc3f a0f5 ced0 ec42 9bbf
00000650: 6b95 c6dc 08c3 bb3f d2dd 1068 ef1f bc3f
00000660: 8478 ee85 917a e4bf 33f2 fee0 0162 bfbf
00000670: 6dc4 641c 3ade c2bf 6ca8 1534 2437 e2bf
00000680: e8e3 2612 f710 cdbf 4225 4134 1167 debf
00000690: 4692 523b 3a45 bb3f 892e 159a 1a16 b23f
000006a0: 2976 3f20 7b93 ccbf 8fd2 2b30 8342 d3bf
000006b0: a29c 905f 0784 aabf aa0f 72da fb28 d33f
000006c0: df7d f00c 8dfd cc3f 70ff 20af 20ab c2bf
000006d0: c735 1aaa 4159 ca3f 95e1 c69a f41b d73f
000006e0: b007 00e2 4235 c7bf be7e c261 1d87 9b3f
000006f0: 4d80 7fd2 0fa8 d13f 900d f436 a37b d5bf
00000700: ea70 0308 7766 cfbf c553 a89f 1812 cbbf
00000710: df7b d5bf b204 b93f fcda b70e 1efb 54bf
00000720: 57a8 9dbd f94e dabf 5509 50fa b5d8 c23f
00000730: ecfc da4c 319f e0bf c585 ff36 cc98 c03f
00000740: 8a36 d09d 4e0b c1bf cb4a 79c0 f1ea 72bf
00000750: 3984 a32a b2e3 d73f dd34 8ecc c14f c8bf
00000760: 9198 5d47 44e7 c03f 18c1 9dae 03ce c43f
00000770: eb71 2dae fc39 d3bf 81cd 6d76 9734 c3bf
00000780: 761f 8ade f683 debf a2f8 2ae8 00e5 cfbf
00000790: 21e5 0970 f3f4 b9bf 7daa 71cc 0655 7fbf
000007a0: cbd3 2fa6 4984 b83f 3838 b7b3 a30c d1bf
000007b0: 3cd3 68c4 b16c cfbf 6c9b 27c4 28cf c3bf
000007c0: e022 16be 0c63 ca3f 22e4 a969 1f76 de3f
000007d0: 2ce0 21e3 fdaa d9bf 3245 0168 f795 c13f
000007e0: 7bc1 238d c450 e5bf bee3 46b9 23b4 bcbf
000007f0: 8ede fb2c 2792 c33f a93b 9a8d ec17 c2bf

conv2.weight f8 [64, 32, 1, 1]
0.10985222933138399 -0.1347068729004271 -0.2659749505982187 -0.08410656418058152 0.15675570279812887 -0.19849979211045776 -0.11457991351601475 -0.06460551009882487
-0.0976542805448695 0.10236048979371877 0.2226866474456555 -0.11257787857337707 0.004330603469748054 0.11240086164032023 0.02241624369906211 -0.11395801690987431
0.18725218821608078 -0.2406633427345648 0.042244153759186394 -0.056422217224208905 0.15239038161762924 0.020227008739515707 0.23389047561885618 0.0033602451179076624
0.11770335947669139 -0.23248540090468311 0.22996964134478703 0.14726457838737922 0.03470563594087763 -0.08672108054257088 -0.5472100696845755 -0.11795471318022105
-0.19269829655706927 0.18090910354051792 -0.1479453225934799 -0.14244931653802173 -0.04782814786368652 0.07971754583046048 -0.16923444849553734 0.09280156173302093
-0.02978989823495367 -0.03710817980224614 -0.00893692564443684 0.0012473001981234758 0.10480585410654635 0.0641791149262031 -0.09786652793614065 -0.1691653072011367
0.09645293016258846 -0.19571472503371173 -0.138251150714287 -0.10211801200439324 -0.05508534755562709 -0.12128437690911112 0.11199531714049565 -0.3275281076313615
0.10919170889937269 -0.018083827110779143 -0.15797800094818854 -0.1018130690440309 0.09760820379064562 0.18031480023334154 -0.22115504125747498 0.2194440628010634
-0.013002696274647573 0.12325082821476795 -0.17536098499814082 0.18281915106131252 0.03776894637204023 0.039472117850661056 -0.3271399735485403 0.16345700528124188
0.07186252099103907 -0.051646106716703 0.20588603640446163 0.07167170693968655 -0.32028492050519897 0.08621517408010831 -0.014460666555558945 -0.044590191194322996
0.08123701670025434 -0.20234643547247508 0.0016426332020488003 0.10220727008454324 -0.09603943132930799 0.12183804535531714 -0.035325860092310514 0.07100758949252585
0.21009978282508512 -0.0818074125411991 -0.3661050261755384 0.09504939897920792 0.17889029244950144 -0.15105618192044265 -0.26122579228807397 -0.28599772713761984
0.11621124716217496 0.011762532669437149 -0.13449351764229298 -0.06991052895378587 0.21016896628379697 0.11098532652683167 -0.1438114547978774 0.0545857816775777
0.11657744169647195 0.12860113937690087 -0.03499579810303407 0.22420107025153083 -0.06270357000657759 -0.02512488968591338 -0.08042700774306057 -0.4168156334336264
-0.25435084617033804 0.05684650217494259 0.14096678317111713 -0.2845180982829673 -0.18792784836609316 -0.18140345413208428 0.009382763500675033 -0.2652908251478857
-0.04629527893730576 -0.08720063684319217 0.21658949266800379 0.006467042575126573 0.07150314956617393 0.08505494596000258 0.0629138304965502 0.02107746620565369
-0.1546891222278451 0.14784663901631764 0.03940096170603974 -0.09603322659332374 -0.016539914428041886 -0.31596429359594397 0.06078681409371681 -0.1427516359615243
-0.21474642220734827 -0.16758434374434922 0.01841318246535694 0.12420381182669363 -0.2779230664939502 0.010933185220445762 -0.07191840590857321 -0.32642515706237
0.2790714095895242 -0.1573808972537694 0.10480003705280676 0.060048749772237286 0.08869423604392689 0.011264408320109073 -0.03400286417067894 -0.08134563703840757
-0.34234985355813946 0.20320231000935526 -0.3723615393933334 0.05006165584471494 -0.3120777081393991 -0.1326220343971118 0.06884007422860744 -0.1307172491615026
0.16012200182801073 0.00962089098942105 0.14073175739358607 0.038842981929812545 0.23030992494480063 -0.02324573925868757 -0.04424103465132999 0.1126806428167022
0.16286510228885243 -0.011645221490543079 0.04224208169428904 0.11677680401216749 0.09561580222873876 -0.062258431716511464 -0.007495722169666402 -0.0484492251145166
0.1492751248007172 0.11194126069619219 -0.28648923864418685 -0.17883044632344586 -0.27732224145056966 -0.019030937388773272 -0.029794771631450993 -0.10341141442960847
-0.18669019096957704 -0.23387374633119257 0.0754443929709989 0.1104459079755939 0.058233318263051906 -0.1384620822637035 0.05973772531033334 0.11949982891959213
0.0003486222533604994 -0.2661407636517608 -0.13492870382876762 0.29096514159511894 0.1901541065073736 0.04430046747220667 -0.11752116986150596 -0.20454695364438968
0.25010690695782384 -0.1650455137461164 0.03082498346082776 0.12015250769904952 -0.12993289617132647 0.1205375543261933 0.1543356206787042 -0.16611278230044824
0.07881946541673282 -0.05970133809426536 -0.04776043723669044 -0.12211469990544568 0.10755413120439404 -0.2223803664512915 -0.15342224628099282 -0.21480827680789127
0.1692963718079047 -0.038475838648902194 -0.003107660773252002 0.09915309321339827 0.1359997571449453 -0.09153011683990084 0.13376068444931352 -0.15719625962690864
0.008064179540317419 -0.1643059517056291 0.07274968024921863 0.13283570832665656 -0.11063290414204753 0.1918473023104357 -0.10600806481222282 -0.33610698810640477
0.2527988146712103 0.031209871914950175 0.05858371844749856 -0.020564351345998454 -0.06859226299113819 0.1266485876713364 0.028060074990030794 -0.16503814456787438
0.07717423498452035 -0.1540745940098842 0.023720590748077017 -0.02388252036560813 0.06417479690885095 0.008356771078936745 -0.03241834537861898 0.022397725988893325
0.01857149872690177 -0.17757516363159517 -0.13887186940468935 0.1886702685585566 -0.04809950054597153 -0.019868822678236267 -0.1355071327088006 -0.19439244679967957
00000000: f3f8 5e94 461f bc3f 82ae d326 133e c1bf
00000010: dff8 97cc bb05 d1bf 7ad6 88fe 0188 b5bf
00000020: eb5e 7d24 9210 c43f 9448 b0f1 7068 c9bf
00000030: 3b6d 54f5 1b55 bdbf c80e 0499 fc89 b0bf
00000040: 032f 41f5 deff b8bf 550a 110c 4c34 ba3f
00000050: f979 04fe fe80 cc3f 5fc8 b962 e7d1 bcbf
00000060: b766 6484 f7bc 713f ce92 c988 4dc6 bc3f
00000070: 96b7 58a6 48f4 963f 6ab3 be43 5a2c bdbf
00000080: 5b0a 3f34 e1f7 c73f 200c 3271 0ece cebf
00000090: b990 af95 06a1 a53f 8dd7 7d73 5fe3 acbf
000000a0: 16e7 a22c 8781 c33f ade5 2094 63b6 943f
000000b0: e67e d083 1ff0 cd3f f424 6adc f186 6b3f
000000c0: aeeb 94af ce21 be3f 9a6e d7e4 14c2 cdbf
000000d0: ec08 532c a56f cd3f 123a 04d2 90d9 c23f
000000e0: 13b6 b4e6 efc4 a13f 10db cd4c 5a33 b6bf
000000f0: cbc9 2ab1 be82 e1bf d4a2 84b3 4732 bebf
00000100: 1490 da78 56aa c8bf 78aa a08d 0728 c73f
00000110: 1f4d 1151 dfef c2bf 4426 ef79 c73b c2bf
00000120: f339 ce55 ee7c a8bf 845b 427c 5e68 b43f
00000130: 0b8d d272 79a9 c5bf 923a a9d8 d7c1 b73f
00000140: 9661 ae3a 3e81 9ebf 2358 54e5 d7ff a2bf
00000150: cb05 f5da 854d 82bf 2080 ca63 8e6f 543f
00000160: 8b24 d173 8ed4 ba3f 88bb b1df 0a6e b03f
00000170: f4d9 dbe0 c70d b9bf 76f9 0573 35a7 c5bf
00000180: 1ed5 a6a4 23b1 b83f 3ac6 ae1b 2e0d c9bf
00000190: aae2 79b5 36b2 c1bf 1433 e4f1 6724 babf
000001a0: 0efd 7a8c 2534 acbf 7a22 5730 7e0c bfbf
000001b0: 8c6f 6ca0 b9ab bc3f ad09 b373 38f6 d4bf
000001c0: a897 b7e2 fcf3 bb3f 5bf8 1b18 9184 92bf
000001d0: aeab c785 9f38 c4bf 0279 d9d9 6b10 babf
000001e0: f124 1aeb d9fc b83f 3355 fe2c 8e14 c73f
000001f0: f8ef c5f2 ce4e ccbf 8716 8438 be16 cc3f
00000200: 4651 135a 28a1 8abf df28 63c4 5d8d bf3f
00000210: b1da c78f 3a72 c6bf 6c06 7231 9e66 c73f
00000220: 14d0 f18a 7356 a33f 2e7e 8b7e b035 a43f
00000230: 00bd e67f dcef d4bf 9115 febd 28ec c43f
00000240: c0f1 7609 9565 b23f 10c0 a0c6 5b71 aabf
00000250: 8eb5 8740 795a ca3f 3cbd 5ab5 1359 b23f
00000260: cc31 be52 8c7f d4bf a4cf 1799 3212 b63f
00000270: 21d4 79cf 8d9d 8dbf 87d3 cd89 86d4 a6bf
00000280: 43c3 f3f9 f2cb b43f 9781 68ed 7ce6 c9bf
00000290: 87b5 74f8 b3e9 5a3f 8932 6d72 412a ba3f
000002a0: 9d91 af48 0a96 b8bf beab 3534 c730 bf3f
000002b0: fd5d 992b 3b16 a2bf 8960 a3aa 8d2d b23f
000002c0: 5cb2 10b8 8ce4 ca3f 0b51 6fa1 54f1 b4bf
000002d0: 72cf 94c6 436e d7bf 66c2 1e4c 2855 b83f
000002e0: ee3c d289 e0e5 c63f 9b7c 9a18 cf55 c3bf
000002f0: 12ef af62 ecb7 d0bf 8654 3269 c94d d2bf
00000300: 7c29 fd31 05c0 bd3f 3721 1169 f416 883f
00000310: 4f19 e665 1537 c1bf 85a8 800b a8e5 b1bf
00000320: 3359 6912 d1e6 ca3f 7fc4 c4cb 8869 bc3f
00000330: 0dd3 92eb 6968 c2bf 467a 43e6 aaf2 ab3f
00000340: 4da6 89eb 04d8 bd3f 8012 ed8b 0076 c03f
00000350: ab2c b320 f8ea a1bf e5b0 3ae4 9eb2 cc3f
00000360: 6a4c 8556 570d b0bf 1401 11ce 56ba 99bf
00000370: b9b9 f847 dd96 b4bf d4c5 837a 1bad dabf
00000380: e3bc 80c5 4847 d0bf 717c 7717 fc1a ad3f
00000390: 2569 c515 330b c23f 97b5 cf65 8b35 d2bf
000003a0: e2b8 5e0d 050e c8bf 7d7a 7077 3a38 c7bf
000003b0: c950 0d33 4537 833f f618 7c5e 86fa d0bf
000003c0: ed66 fdc9 03b4 a7bf e38f 6eeb c752 b6bf
000003d0: 9549 d559 34b9 cb3f 2bc9 ca85 2f7d 7a3f
000003e0: 5c9d f2c8 074e b23f d5e1 4233 29c6 b53f
000003f0: a0e2 72ec 1e1b b03f 0cb0 24d0 5495 953f
00000400: 42fd 8168 dacc c3bf 6305 b37f a3ec c23f
00000410: f8b1 eae3 5c2c a43f f334 8c2f a295 b8bf
00000420: 5535 30de d6ef 90bf 4db1 ec4c c238 d4bf
00000430: d4ff 1e05 731f af3f 0cdf f383 af45 c2bf
00000440: 0723 288e cf7c cbbf a20f da5d 6773 c5bf
00000450: 9e15 04c2 e7da 923f 4a8d d52d d2cb bf3f
00000460: af50 59d4 7dc9 d1bf 1312 b447 2364 863f
00000470: 2697 5ba1 3e69 b2bf b52b 8b57 26e4 d4bf
00000480: 51e1 5b54 4edc d13f 712b 5ca7 0e25 c4bf
00000490: abea c2db 2cd4 ba3f 00f9 dfb0 b5be ae3f
000004a0: bf01 275b aab4 b63f 2bd0 bf4a cb11 873f
000004b0: e8b2 2acb d268 a1bf 3f93 c052 11d3 b4bf
000004c0: 73a5 345c 0fe9 d5bf 631d fb85 8802 ca3f
000004d0: a2e2 7e7e c5d4 d7bf 07f8 456d aea1 a93f
000004e0: 113d 91c7 14f9 d3bf 6e77 3b42 c2f9 c0bf
000004f0: 1c51 77cb 809f b13f 7bfb 15c3 57bb c0bf
00000500: 7855 9cb4 e07e c43f 6778 4321 1eb4 833f
00000510: aacc c18b 7f03 c23f d6a4 2232 3ae3 a33f
00000520: 5883 caad cb7a cd3f 43b4 8c27 bbcd 97bf
00000530: def4 efc9 c2a6 a6bf 003d ca7b a3d8 bc3f
00000540: acc2 fe7f c3d8 c43f 5a08 a72b 73d9 87bf
00000550: 45ab c80e c1a0 a53f afe5 29aa 15e5 bd3f
00000560: efa0 8df7 467a b83f 10ce 3e50 56e0 afbf
00000570: 6006 4299 d5b3 7ebf c84b c43a 56ce a8bf
00000580: 120d 9081 721b c33f 2b5e c3b5 2ea8 bc3f
00000590: 847e a8f5 d655 d2bf 1280 3e83 eae3 c6bf
000005a0: 81f3 5ec9 a5bf d1bf a3bb c996 d87c 93bf
000005b0: eed7 fe46 8582 9ebf 0a1e 02a3 2b79 babf
000005c0: cf62 59d4 76e5 c7bf 2657 f12d 93ef cdbf
000005d0: 7f1d 7ae0 5250 b33f 8c71 bbda 2e46 bc3f
000005e0: 8269 f4ea c1d0 ad3f 7082 8721 20b9 c1bf
000005f0: 4933 1771 f195 ae3f 9255 1671 8a97 be3f
00000600: 8676 452d e9d8 363f e512 0145 7308 d1bf
00000610: af3c 1e01 5845 c1bf b554 db41 2c9f d23f
00000620: 4b1b 5342 f856 c83f 1835 fb05 8dae a63f
00000630: 7090 240d de15 bebf 1c15 3336 982e cabf
00000640: ebcd 7866 c001 d03f 2f0f f21d 3620 c5bf
00000650: 67bb 749f 9590 9f3f e18c 1993 50c2 be3f
00000660: 1a7e dd21 a4a1 c0bf b154 c595 8cdb be3f
00000670: 7421 b605 45c1 c33f 78c8 b603 2f43 c5bf
00000680: 3ac9 4032 832d b43f afdc 487d 2c91 aebf
00000690: 61d0 f257 0e74 a8bf 126a 74b2 e842 bfbf
000006a0: a793 12e4 aa88 bb3f 3624 97b8 f576 ccbf
000006b0: 7ebb 2015 57a3 c3bf ac66 e66d d67e cbbf
000006c0: 448a 1fe6 80ab c53f 68cd 5de9 1ab3 a3bf
000006d0: 3ff7 6bac 3c75 69bf c816 a6dc 1862 b93f
000006e0: 2dca 99a6 7068 c13f b62a 6d8a 846e b7bf
000006f0: f7a5 99f2 111f c13f 2c57 13cd 011f c4bf
00000700: 276b 28db f383 803f 0f92 8e38 fa07 c5bf
00000710: 7c00 7719 b99f b23f 9382 80af c200 c13f
00000720: 11cf 2621 7052 bcbf 09e4 9fd0 738e c83f
00000730: 2112 7b33 5823 bbbf c1f0 77e2 c682 d5bf
00000740: 17bf 5e14 db2d d03f a18c bf0c 7bf5 9f3f
00000750: 92c2 9e65 affe ad3f a662 fa41 d20e 95bf
00000760: d039 4e36 438f b1bf 7205 115b 0536 c03f
00000770: b738 9fc1 c7bb 9c3f 297a c14c f81f c5bf
00000780: 8f32 5acf b0c1 b33f f85d 355f b7b8 c3bf
00000790: ece7 04e6 354a 983f 4455 aacf a874 98bf
000007a0: e671 f36d c26d b03f 08a0 dfd3 5a1d 813f
000007b0: 8f19 622a 2399 a0bf 9d1d 82f2 6def 963f
000007c0: 9dd2 ad2e 6804 933f 1795 3070 c8ba c6bf
000007d0: 19b9 b6ac 8dc6 c1bf 77e0 97ec 5826 c83f
000007e0: 0b07 996b 7fa0 a8bf d4c2 731e 7e58 94bf
000007f0: b6f4 ad37 4c58 c1bf 9f09 cc08 dae1 c8bf

conv3.weight f8 [128, 64, 1, 1]
0.19883729145763146 -0.06496711738308489 -0.184151932277361 -0.09599480180277896 0.13184341884015396 0.04489341906828792 -0.09950628585314168 -0.004576643167985876
-0.0765117179054712 -0.10105490820986765 -0.19627269963506097 -0.19955181011569176 0.3280343468475501 0.030868598476423197 -0.220077475143842 0.04271028474519616
0.2258650040631724 -0.012339230909479445 0.10730640916247429 -0.03389671149526901 0.1551623547774721 0.09060405464374925 -0.1953190834843404 -0.02790389713168707
0.1259487102971947 0.07993271682625981 0.05201867279972639 -0.11856978914943223 0.03369390710899531 -0.0842662202392398 0.055377936028831815 -0.061815947020565476
-0.056471480557943717 -0.11377863276911733 -0.0077795627437892674 -0.2941479623464474 0.07044513511112781 0.034307970290826564 -0.03738866665231059 0.14324721939194132
0.10172871034785662 0.074397550554532 -0.033361036161937654 0.15089691432033622 0.18835753861872992 -0.2155032891259061 -0.03851293510742884 -0.23064671613735796
-0.00609275762764381 0.03996771338277685 -0.399013668825957 0.03481473744475916 0.08034725462482827 0.011003864448600471 0.16730385113352775 0.23278095791521353
-0.05911136176568968 -0.03215503702767705 0.05174320507331075 0.0478158700223211 -0.07535283258828264 -0.2473307965839397 0.021555608296229562 -0.1428547935059169
0.05917983964524612 0.10857003076435814 0.058013296162401674 0.1257966858466336 0.1302687191928509 -0.0514707965798419 0.2145695761067245 0.1693468783537851
-0.05384583356914474 -0.026190771521296216 -0.12439417531487525 -0.04688036758486583 -0.012655058301718338 0.07541879685191473 0.036238999986412924 -0.19945928953619263
0.3244868327114282 0.04685378924987096 0.003912478341216179 -0.06199970355730063 0.04301180756444081 -0.12314264316529787 0.12180707709699584 0.07840944676757777
-0.025235110721833282 -0.12428617518252497 -0.05181159534413086 0.11168577431261285 0.20402696508054838 -0.06514119651469358 0.037309404012370255 -0.047328771465391724
0.12652114489124078 -0.24003935380317923 -0.14837428229020067 -0.01243381437626207 -0.4157938823431568 -0.0517335037415301 -0.08216882692378147 0.0944288441315102
0.0796914582704632 0.07878689059562928 -0.04901609534399955 -0.07480314023801428 -0.07660875788710174 -0.02334992483501772 -0.20278761562458256 0.11508382097528619
-0.18202523308119276 -0.2340597904974789 -0.17839195658591153 -0.025090424234507237 -0.18286705771401943 0.06265959341445668 -0.003444213321952718 -0.06998411269074144
-0.13872230616511888 -0.133430873287455 -0.29124030772832865 0.06662761000385878 -0.254908242592548 0.18513172357862642 -0.1838427243858708 -0.10767332826535493
-0.077877938747406 0.11428035795688629 0.07090204954147339 -0.05517657695581571 0.011727195489525402 -0.09855574422608677 0.08442986555180645 -0.018764982502877243
-0.06292916129211416 -0.04991389036240248 0.02115354868394879 -0.09107869279888937 -0.1028079092502594 -0.01202089187637437 0.09114340376942337 -0.056484864764071406
-0.07121361792087555 -0.04153757239079685 -0.14103079343939703 -0.1562505666987497 -0.05684164655044798 -0.062187403440475464 0.08739471845218028 0.05323710203972325
0.0003997552304884819 -0.06582350922064904 -0.1427296704881231 -0.09466359101003777 -0.005052203162432029 -0.05639236702117678 -0.12266103576046375 -0.03415684717137269
-0.12162659985039373 -0.037845891607824235 0.007143551396512968 -0.12008987654584986 -0.1452509378255206 -0.1274262656749324 -0.0007568168243038132 -0.07731306497413241
-0.035696312422352786 -0.06676039099693298 -0.07517862669667628 -0.06124863028526306 -0.04717877485749372 -0.11746129393577576 0.041777600037645385 -0.0840560800721376
-0.08113310632368624 -0.006621881070141752 -0.08944029042744253 0.04949209652421045 -0.03979984631746699 -0.09621044829586467 -0.12520356389219287 -0.03576170124031687
-0.09500199556350708 0.04351195693016052 0.02219724137546353 0.004850652859065167 0.08996532337037892 0.0018750429153442383 -0.03120931802052427 -0.053867193360441906
-0.030901479044559265 0.050476496555259535 0.15142556200519958 -0.1430731517535592 -0.027773021200798 0.09344007707548378 0.028127705351755038 0.3631580476064087
-0.1655246927705829 -0.15848132823092478 -0.06409914311776399 0.0257545133737539 -0.09909441798633183 0.0629362991739661 0.10262706291643804 0.016043043562641524
0.12304197649155997 -0.15775099817865565 -0.01099202273482518 -0.15582668004271874 -0.09469855436911914 -0.021619003503916965 0.22481239595307498 -0.032268557290558005
-0.07255255015741181 -0.08045323412992446 0.058742060689896874 -0.08214288171741 0.3045623850378486 0.001977221235222329 -0.12075534027144912 0.02081575697813177
-0.04772428783213846 -0.10963650777780153 -0.11782048180409013 -0.05737971643171859 -0.062048752997586436 0.008719827787457 0.22869245999708904 0.15284315910187132
0.05341366220949466 0.09479612125191927 -0.09548124253387755 0.01810064927295099 0.005090603929880751 0.17153079825558143 -0.19032658305787198 -0.1224437231804629
-0.22937747779707215 -0.0710493940714583 0.13667543766817908 0.05450340200366091 -0.226104787454782 -0.01970545658112914 0.0881311786978924 0.19287387601804445
0.17466413451112384 0.11421552361350235 -0.3425140437906349 0.1070189415178073 -0.32968724074854155 0.26369662071307387 -0.2958321161146941 0.0063468671934471
00000000: 5e93 0418 8073 c93f 46ca 795c afa1 b0bf
00000010: 3f30 505f 4a92 c7bf 3f35 5486 1d93 b8bf
00000020: cd3e 0ec2 3ee0 c03f 2068 682d 45fc a63f
00000030: ef54 7c73 3e79 b9bf eb1c b64b f5be 72bf
00000040: ca2e 2a9e 4596 b3bf fa95 dc05 bcde b9bf
00000050: 2fde 03bd 761f c9bf cbf9 26e9 e98a c9bf
00000060: 5b32 ebc5 83fe d43f 3ee7 b793 049c 9f3f
00000070: 731e 2aab 7f2b ccbf 27ef 5d58 1fde a53f
00000080: d690 e1fa 24e9 cc3f 1149 b689 4f45 89bf
00000090: 9307 01ce 6e78 bb3f 57d5 a0e6 e85a a1bf
000000a0: c077 ab2b 5cdc c33f 5374 94cb d331 b73f
000000b0: b2ca ec39 3700 c9bf a338 72d6 d692 9cbf
000000c0: 0594 d95b 161f c03f f132 a674 7876 b43f
000000d0: 718c e904 31a2 aa3f d4bf b0f6 965a bebf
000000e0: ec16 37ea 5340 a13f 08c7 1594 7892 b5bf
000000f0: 44df 5330 7f5a ac3f a031 a6fd 56a6 afbf
00000100: f15e 4e74 d4e9 acbf 9519 bab2 9820 bdbf
00000110: bdf2 fc78 76dd 7fbf 4da2 9df9 51d3 d2bf
00000120: b7ef 763f b108 b23f 9250 c874 d090 a13f
00000130: 3583 0679 9b24 a3bf 7502 44c5 ec55 c23f
00000140: 0320 028c e40a ba3f bfc2 88c6 b70b b33f
00000150: 8269 8d9e b214 a1bf 3f5d 0910 9750 c33f
00000160: bf47 298e 191c c83f 18f4 7c9d 9c95 cbbf
00000170: 14cd 84a9 f7b7 a3bf 0fb0 5ee3 d485 cdbf
00000180: 690b 0d2c b8f4 78bf 93f6 bfeb a576 a43f
00000190: eaec 90a0 7089 d9bf 60f6 7cbd 3cd3 a13f
000001a0: afe0 ef3e a391 b43f 44a8 7daf 3189 863f
000001b0: 6482 8e6c 366a c53f 764e b034 c4cb cd3f
000001c0: 5419 362b d843 aebf 5cff de00 a076 a0bf
000001d0: ae01 29db 157e aa3f 2c89 f35b 527b a83f
000001e0: d1ac a0bf 524a b3bf 3692 4f19 89a8 cfbf
000001f0: f5f4 b562 ac12 963f c4a5 17dd 1049 c2bf
00000200: 04bc b7e7 d14c ae3f ea68 75db 3ecb bb3f
00000210: cd58 8033 ebb3 ad3f 7307 d415 1b1a c03f
00000220: 5903 5038 a5ac c03f d3db 0458 615a aabf
00000230: ce27 0c10 0477 cb3f fac6 1a94 28ad c53f
00000240: c021 695c ae91 abbf dc5b 90ec c0d1 9abf
00000250: c54f caf2 4bd8 bfbf 34f2 331b b400 a8bf
00000260: 4e61 472c e5ea 89bf 658e fb71 a54e b33f
00000270: 1512 900f eb8d a23f e87d b8ca e187 c9bf
00000280: f29a 9e6b 64c4 d43f d332 0b49 38fd a73f
00000290: 526c 59e8 8706 703f 8bd5 47d6 6cbe afbf
000002a0: 6488 a9c5 a405 a63f d750 23b9 4686 bfbf
000002b0: fc8d 8da4 bf2e bf3f 606f 9039 a412 b43f
000002c0: 657b 0b9d 3bd7 99bf bafd c001 38d1 bfbf
000002d0: 55fe 1ca7 0c87 aabf 49e2 195c 7097 bc3f
000002e0: 97f4 423b 8e1d ca3f a425 a7ec 17ad b0bf
000002f0: bffc 21dc 371a a33f 311a 350b 7a3b a8bf
00000300: c4b9 c749 d831 c03f 6537 2b0b 9cb9 cebf
00000310: 447f 00b1 edfd c2bf e377 e250 e676 89bf
00000320: 539b a2f1 5d9c dabf a4cf 5a55 d07c aabf
00000330: 5069 6328 0409 b5bf 000b 581d 7d2c b83f
00000340: d8cc 0acf a866 b43f c135 76ae 602b b43f
00000350: 22cf f53c a318 a9bf 01db f570 4c26 b3bf
00000360: 3f58 b6ad a19c b3bf b930 1fee 0ae9 97bf
00000370: 6b19 92d0 f1f4 c9bf fc37 631f 2276 bd3f
00000380: 3bb4 9053 9a4c c7bf 7365 bfd4 abf5 cdbf
00000390: e7f5 b331 8cd5 c6bf 9db1 1ede 4db1 99bf
000003a0: e7df 3210 3068 c7bf 5ee9 7e88 750a b03f
000003b0: 85e5 80f2 0937 6cbf 5f0e 3f93 7aea b1bf
000003c0: aa39 1a0c a7c1 c1bf 72ee 854a 4314 c1bf
000003d0: e616 3e63 aea3 d2bf d22a facd 810e b13f
000003e0: ed9c 5aa9 6a50 d0bf bd74 1c75 65b2 c73f
000003f0: 4424 6c8c 2888 c7bf 9919 8daf 7a90 bbbf
00000400: 0000 0000 cfef b3bf 0000 0040 7a41 bd3f
00000410: 0000 0000 a326 b23f e497 0fb3 1a40 acbf
00000420: c87b cf88 6d04 883f 25b3 4802 f33a b9bf
00000430: 8ac6 5917 329d b53f f5b4 a3a8 2037 93bf
00000440: f3de b621 201c b0bf f3fe 713d 508e a9bf
00000450: dbe8 2a9f 46a9 953f 6104 efe6 ee50 b7bf
00000460: 0000 0080 9e51 babf 517e d2cb 689e 88bf
00000470: 5c90 6f92 2c55 b73f 1be7 c28d 95eb acbf
00000480: 0000 0040 0e3b b2bf 7689 f2a5 6944 a5bf
00000490: cf8b c60a 4c0d c2bf b0ee f9c0 0400 c4bf
000004a0: 5f4d f829 591a adbf 0000 0000 07d7 afbf
000004b0: c861 9811 805f b63f d68b 63b8 e441 ab3f
000004c0: 57b5 2fa4 c732 3a3f d71f 693b cfd9 b0bf
000004d0: 072a 7541 f744 c2bf 7291 8283 df3b b8bf
000004e0: edb0 af75 9eb1 74bf 0031 33d8 75df acbf
000004f0: 7aad 15b1 b666 bfbf 212f 129b 017d a1bf
00000500: da5d aebc eb22 bfbf adb4 7c65 8960 a3bf
00000510: ca4d 017a 8e42 7d3f a558 58cc 35be bebf
00000520: ad43 d62d 9597 c2bf bbd4 dcfd 804f c0bf
00000530: 0193 35c1 a3cc 48bf 5b0f 9efd c9ca b3bf
00000540: 1a34 e27c c946 a2bf 0000 0080 3517 b1bf
00000550: 0f3a 050f e83e b3bf 0000 0000 fb5b afbf
00000560: a814 28fe d027 a8bf 0000 0080 f111 bebf
00000570: acee bba3 df63 a53f f895 f002 b384 b5bf
00000580: c37a 48a6 23c5 b4bf 23ee 25aa 8b1f 7bbf
00000590: b2a2 5412 8fe5 b6bf 5ac3 f62f 0757 a93f
000005a0: 6b81 a33c a560 a4bf 48d8 f678 3fa1 b8bf
000005b0: 0f3b 219e ab06 c0bf 428f 8d92 5b4f a2bf
000005c0: 0000 0000 0d52 b8bf 0000 0000 3347 a63f
000005d0: a17d 13a7 dfba 963f 848d 4d36 47de 733f
000005e0: 0b5c a6a9 f707 b73f 0000 0000 80b8 5e3f
000005f0: 1a1a eae0 55f5 9fbf 94ed 9e13 7b94 abbf
00000600: 93e0 9327 a3a4 9fbf 5fce d72b 0ed8 a93f
00000610: c69d 4bae e961 c33f 9dcc db95 3850 c2bf
00000620: b1fc 12e7 8770 9cbf b3c7 2c5b b0eb b73f
00000630: c6a5 635a 82cd 9c3f 4ceb 6f40 fb3d d73f
00000640: 28a7 10c3 e92f c5bf b1a4 e3bc 1d49 c4bf
00000650: a075 642b cd68 b0bf a19e a822 645f 9a3f
00000660: c3aa 7774 405e b9bf fdf6 aee2 971c b03f
00000670: 6d1f e966 c445 ba3f 402a b86d 966d 903f
00000680: ed02 11d1 ad7f bf3f eb59 0b49 2f31 c4bf
00000690: 5abf 4d51 fc82 86bf 8d59 50ef 20f2 c3bf
000006a0: 9a6c fe19 2a3e b8bf 79f2 15c4 4a23 96bf
000006b0: 474b 2d10 a7c6 cc3f 910c 811c 8185 a0bf
000006c0: 31e0 2ace cd92 b2bf 7109 7249 9598 b4bf
000006d0: 5421 207b 7013 ae3f 2652 93de 5007 b5bf
000006e0: 9213 d53a f37d d33f a000 5a91 8832 603f
000006f0: 7b81 486d d2e9 bebf 43a9 d9cd b950 953f
00000700: a287 ed5e 516f a8bf 5772 5a5f 2311 bcbf
00000710: 8ac4 25ac 7b29 bebf 1254 0ecb df60 adbf
00000720: c7b1 c3a9 dac4 afbf 1f1b 6479 b3db 813f
00000730: a2bf 4366 cb45 cd3f 2943 e158 5d90 c33f
00000740: b6e0 b218 0959 ab3f 808c 9000 8f44 b83f
00000750: ae7f 106e 7571 b8bf 889e a702 fa88 923f
00000760: bce5 5496 e2d9 743f 02db 61a0 b8f4 c53f
00000770: a080 e518 9f5c c8bf ce1a a9ca 7858 bfbf
00000780: f3e7 c9be 3d5c cdbf f201 f007 4b30 b2bf
00000790: b6c4 79ab 947e c13f f4bf 40b2 dee7 ab3f
000007a0: 4b2d cb6d 00f1 ccbf ac58 46ce aa2d 94bf
000007b0: edef 43d2 c38f b63f 8208 e056 17b0 c83f
000007c0: bc34 c1f4 645b c63f f491 9d82 3a3d bd3f
000007d0: 6418 2006 c0eb d5bf de1b dfe5 9765 bb3f
000007e0: 0b1a 3b83 9819 d5bf cad0 81ca 67e0 d03f
000007f0: e76b f4d3 e9ee d2bf 6352 7230 2cff 793f

fc1.weight f8 [64, 128]
-0.32751743171690767 -0.018792441699544714 0.10270768857193183 0.17708677892160876 -0.020792216771413442 0.05371996523865568 -0.10565269652646743 -0.08784331101720094
0.12913312739154115 -0.11745094722309317 0.019235194343479117 0.02637286268203014 -0.046579858527459606 0.0064880511378355155 -0.009355190995907854 -0.0037529560259571795
-0.056490595765834914 0.02745699795648387 0.05958486397256657 0.07063802373791735 0.05636166114651093 -0.036590466758446974 0.04417843130327862 -0.06237888723263718
0.09064703123849853 -0.10330678117780777 0.07633793960839375 0.08198670238746508 -0.17071462907993173 0.05867574336955621 0.0473670090798455 0.17422754889266517
0.05515720277609261 0.07150242814278078 -0.059792960257228106 0.04034301799435695 -0.05462878726677008 -0.0745036977505994 0.01235853648472446 0.01833691858263391
0.16761846093501806 -0.004065263009685059 -0.061464514053533446 -0.028086594530729255 0.1248908035161182 -0.018717064407312623 -0.13560082604176535 0.032224635879414494
0.13164047241188503 -0.04166437005741092 0.056086461442950986 0.1714304710406819 -0.18254547830537574 0.18567071552587053 0.06514560541086067 0.021330290971285602
0.01937945761914392 0.08862396223765606 -0.037334221774056556 0.03141186800597353 0.02599135337248692 -0.05548103418313471 -0.23571793047794895 -0.19473023641164444
-0.13641831146849517 0.002800312455494846 0.16552363644419726 0.06882656242790343 -0.04834184631816305 0.11915430793649841 0.14721623160447836 -0.03585341010206339
0.1348704231615653 -0.08965419488801989 -0.10602280426548812 -0.0075128297777702305 0.04460311941496516 -0.16953024059967828 0.0372643750596175 -0.058772275878750016
0.027928071782583802 -0.12471716015622701 -0.08826584368944168 -0.09477439291342804 0.08766569453400212 -0.051372080762430376 -0.029847834840666942 -0.12479425174367603
0.09473592936679572 0.12973453494329515 -0.0845436085257198 -0.01653587624560763 0.135847773519671 0.06629005632140521 -0.21622975886991694 0.07669160716097091
0.013649841927651358 0.12652233975979577 -0.060923615531997856 0.00964598321569886 -0.1491254265221481 0.122209448044829 0.24732096298569456 0.08976949474040762
-0.013242148108364644 -0.06512717990270561 -0.16845638050094122 0.15006106903396665 0.01986177112898987 0.1475916010587532 0.017471346854921896 -0.009054241290027921
0.03516397835814043 0.14959246050370587 0.024649837167284545 -0.23067827413104816 -0.10024004161292878 -0.05895612317495221 0.2350289501703744 0.09864652639207623
-0.15947612551877258 0.11057279081630715 0.034483888240197255 -0.1451498895666683 -0.09804214155431687 -0.07213553105166462 0.14022120229497312 0.03424091681055412
-0.05531944347337279 -0.07775594609184422 -0.06365160644054413 0.06047830454091283 0.007276330706667395 -0.13465759879609052 0.07231172335187229 -0.02651148750193057
0.022811556216584927 0.15750486388258653 0.05736321540259752 0.027709753361651275 -0.09469245829701194 0.25385854231407445 -0.14277482925865626 -0.18228246354307812
-0.02338716107915365 0.13960864218089092 0.029855555256774018 -0.13366038410080447 0.014069648743733771 0.1813581897145996 0.2313732050077224 -0.04202638999842008
-0.2151595737219619 -0.12350876673244877 -0.09432134829539995 -0.0457772061635959 -0.07628556855262113 -0.08117215112366954 -0.06412301874067046 -0.026444920688254627
-0.02108148900867622 0.03155346573923828 -0.005858061335038064 0.061488613394321226 0.06237324408752931 -0.020984512450008864 0.09722163731721666 -0.12952340465962825
0.05050833375042556 0.2156079602303311 0.056632957679428116 -0.1206576439896973 0.07341038219291438 -0.03852816339328561 -0.01574141681717858 -0.082206829044036
0.001338012203060133 0.19430717073060397 0.013403036084734607 -0.1892192087430111 0.13196293551568153 0.005322025999894012 0.08522635072926835 -0.023709885776042938
0.14535026640054255 -0.0071107256742988555 0.06729261196938913 -0.15040346176493527 0.06546434831436522 0.22845354686808744 0.11715287322609992 0.08016297200755822
-0.04580163925898714 -0.043987419603895433 -0.09790678410867926 -0.15439329372997732 -0.18101193992519904 -0.0824429879944077 -0.026494613230884576 0.009268766707695242
0.0308351806941589 -0.016277162805288615 -0.0602203825619283 -0.0990642754581314 -0.014393653856700264 -0.04047075128066197 0.09187958103831889 -0.039853621861929756
-0.08040850107528508 0.1378509488158999 0.06779087414522547 -0.05312991376704887 -0.31496025530889593 0.09761637347527155 0.09190384333013424 0.10539875237785662
-0.08471068970934945 -0.07847819068822838 0.1864503314982878 0.004178252396496783 0.06137042836607683 -0.11699280367820342 -0.13001035917750886 -0.04135240770018875
-0.08869681023317703 -0.10202066788682435 0.13947000202950713 -0.017046684468575705 -0.09008636964154917 0.03155693208436174 -0.00031049965405892193 -0.03361625266460389
-0.008745337538866343 -0.18782976798216225 -0.03584157032195326 0.0902208124653941 0.026030594314963112 0.04742022626956143 0.15703862470928573 -0.08398719283001876
-0.10416195490087017 0.04174461509742498 -0.04589190858408795 -0.0023884848842596128 0.013448214443433996 -0.13058634072990608 0.021614303562533396 0.0808175216261068
0.005921206133995484 -0.11335698668675474 0.01776012191666936 0.15879898132847703 0.03746074078229728 -0.04237699491720307 -0.00040010724560653687 -0.1725390898712165
00000000: 9d04 86ac 0bf6 d4bf d6ce 0b6a 533e 93bf
00000010: d2d5 7613 0d4b ba3f 75da 0292 c7aa c63f
00000020: 0aa2 2d0c 8e4a 95bf b73f afeb 2e81 ab3f
00000030: 6dbd 501c 0e0c bbbf 8cc1 fd33 e67c b6bf
00000040: 1c0a 7d2f 6f87 c03f a318 35e9 4311 bebf
00000050: e8be 8c0a 64b2 933f 0d87 e2da 7c01 9b3f
00000060: b034 0eb2 50d9 a7bf c07c 3af7 3693 7a3f
00000070: 3787 007b d028 83bf 394d a2ec 84be 6ebf
00000080: ee0e b1da 55ec acbf 4fe7 13f1 af1d 9c3f
00000090: 9093 3244 e881 ae3f 0df5 ce61 5515 b23f
000000a0: 19b8 be86 6fdb ac3f ca53 2554 fcbb a2bf
000000b0: 55b7 452b 8e9e a63f 6006 4021 20f0 afbf
000000c0: 7b1a a6d2 a434 b73f 471c 9d2e 5072 babf
000000d0: 18e4 0f1a e28a b33f 3807 769d 14fd b43f
000000e0: 086d 6c1a fad9 c5bf 8674 ae3d bf0a ae3f
000000f0: e385 d015 7d40 a83f ce32 479c 164d c63f
00000100: 32d3 1f9c 903d ac3f 9334 75ae fb4d b23f
00000110: ecf0 abd1 2e9d aebf 66be d00d d7a7 a43f
00000120: fb3a 76ed 4df8 abbf b817 45a1 ac12 b3bf
00000130: e1fc 39b0 6e4f 893f 4dc0 7cc6 e9c6 923f
00000140: 1bfc f58f 8574 c53f b1dc d1ba bca6 70bf
00000150: 3bec 72db 4678 afbf 9faa dc73 bbc2 9cbf
00000160: 7c42 acfc d7f8 bf3f adb0 06ee 902a 93bf
00000170: cf79 942c 5e5b c1bf 2187 745a bf7f a03f
00000180: 8c65 eb51 98d9 c03f c92b 9c45 0855 a5bf
00000190: 78ab 4a5b 5db7 ac3f 5d2c 5405 6ff1 c53f
000001a0: 9958 ad75 a65d c7bf 9f17 81d9 0ec4 c73f
000001b0: 98bf b7e4 61ad b03f 8618 8b98 9bd7 953f
000001c0: b8f6 c062 35d8 933f 4ce2 735b 0fb0 b63f
000001d0: 1216 159b 781d a3bf 3377 9563 3715 a03f
000001e0: bfbc da32 7a9d 9a3f e7c9 ba96 0268 acbf
000001f0: 5be6 3d51 012c cebf 1416 779e ebec c8bf
00000200: d996 2abd 2776 c1bf 181f 474d aef0 663f
00000210: c214 9fe6 e02f c53f a154 b91a 9e9e b13f
00000220: 1df6 ed31 43c0 a8bf 39c8 c38f e580 be3f
00000230: 8b3e 1742 fbd7 c23f c847 adcf 605b a2bf
00000240: f59a 561c 6f43 c13f 0346 feca 93f3 b6bf
00000250: b552 f37c 4f24 bbbf fa8f 22e3 c5c5 7ebf
00000260: dbab 5f56 38d6 a63f 2d81 87bb 2ab3 c5bf
00000270: f9b5 5ff0 5014 a33f d216 9f55 6617 aebf
00000280: 3841 c92b 2d99 9c3f 27f9 1ebc 76ed bfbf
00000290: 0000 0020 9798 b6bf b8b9 0f76 2243 b8bf
000002a0: bb31 014b 4271 b63f 0fae 9afd 704d aabf
000002b0: f000 fd49 6e90 9ebf f4c6 f71d 84f2 bfbf
000002c0: 2df5 6226 9d40 b83f e521 5f28 249b c03f
000002d0: cc2b b461 a6a4 b5bf ca0a bede c7ee 90bf
000002e0: ef2d 40b8 7563 c13f 9b4f f397 62f8 b03f
000002f0: 5156 62af 6aad cbbf 1151 a2a8 0fa2 b33f
00000300: 6a0e 66c5 72f4 8b3f 1ca9 bd4f e231 c03f
00000310: 1d2c 8750 6131 afbf b9f1 97f3 45c1 833f
00000320: 2414 f5be 8a16 c3bf 5e60 9d4e 1e49 bf3f
00000330: b2c3 d19b 36a8 cf3f 97a7 1634 22fb b63f
00000340: f707 6f08 b31e 8bbf c448 c3c3 2cac b0bf
00000350: ebeb 868a fa8f c5bf f4ab f37b 3335 c33f
00000360: 3733 c2e5 a456 943f 7f16 db15 48e4 c23f
00000370: bc93 6f3d 02e4 913f 279a d8b1 078b 82bf
00000380: 2e47 1752 0301 a23f 2bb9 cb82 d825 c33f
00000390: 85db f091 ce3d 993f 8d31 a59d dd86 cdbf
000003a0: 512a 7ad4 54a9 b9bf 7be8 de39 7f2f aebf
000003b0: 0828 4cbb 6d15 ce3f c5cc b714 e640 b93f
000003c0: 1547 ccb3 b669 c4bf 4b2c 6298 7f4e bc3f
000003d0: c60c 7648 dfa7 a13f 207a 5a86 4594 c2bf
000003e0: 2e08 9b2f 4a19 b9bf 1a1a bf62 7977 b2bf
000003f0: df06 08b3 c4f2 c13f 76d4 c583 0688 a13f
00000400: 1d24 1a81 d452 acbf e0b4 884d d0e7 b3bf
00000410: 0000 00c0 784b b0bf cdd2 3d28 03f7 ae3f
00000420: c763 b826 c9cd 7d3f 3859 7ecf 753c c1bf
00000430: a7e7 e966 0583 b23f 050b 28cf d325 9bbf
00000440: 4034 af9f e95b 973f 0b17 ab8f 1e29 c43f
00000450: f68c 4b1c b65e ad3f 42c3 df11 f25f 9c3f
00000460: 3342 90d3 c33d b8bf cc25 43e6 373f d03f
00000470: 14d0 2d13 7246 c2bf 75a2 c621 0855 c7bf
00000480: 89cc eccf cdf2 97bf 4af4 332c b2de c13f
00000490: ae20 ba65 7492 9e3f a3eb 3d91 c81b c1bf
000004a0: 97ac c349 8cd0 8c3f d4cd d7c2 be36 c73f
000004b0: 40e5 561e a39d cd3f 7a6c 39a5 7b84 a5bf
000004c0: f34f 4752 598a cbbf dd99 e241 459e bfbf
000004d0: 604d 3ea2 7125 b8bf 1cf2 bf26 1c70 a7bf
000004e0: 2f1c 1776 7387 b3bf bc10 6cb6 b2c7 b4bf
000004f0: 2d77 69bc 5d6a b0bf 7766 0196 6014 9bbf
00000500: 5c7c 5fc7 6296 95bf 27d9 d99e c627 a03f
00000510: ef96 a15d 9ffe 77bf 32c2 357f 6f7b af3f
00000520: c0b2 00c7 62ef af3f ddfa c7ca f67c 95bf
00000530: 67b3 bd68 84e3 b83f de32 8a11 3994 c0bf
00000540: 265e 4473 3adc a93f 3f28 f9a8 0a99 cb3f
00000550: 31c1 37ba fefe ac3f acba f25a 6be3 bebf
00000560: ee96 b4d6 05cb b23f d58a 7fa3 f6b9 a3bf
00000570: 47a0 b099 841e 90bf ea82 40ba 810b b5bf
00000580: 2abb d7a9 07ec 553f 1b47 d5af 0edf c83f
00000590: 0b56 350d 0d73 8b3f e7c1 a9c4 5538 c8bf
000005a0: 2179 2956 29e4 c03f c45a e379 8ccc 753f
000005b0: 02bf 23e5 64d1 b53f 0000 0080 6747 98bf
000005c0: 2ede 5368 d69a c23f 2512 8de3 2220 7dbf
000005d0: 04c3 abaf 163a b13f 9927 beae 6b40 c3bf
000005e0: 396c 1083 45c2 b03f d610 3a40 f73d cd3f
000005f0: e976 230f bbfd bd3f 6b64 1f7f 8f85 b43f
00000600: 8cea 70fd 4f73 a7bf a4b0 44e1 8485 a6bf
00000610: b8a5 cd43 6b10 b9bf 6b5f a5d1 28c3 c3bf
00000620: 0806 1535 662b c7bf cd72 38d1 fb1a b5bf
00000630: 4c24 6365 6721 9bbf 2d08 12cf 80fb 823f
00000640: fc34 97f2 4193 9f3f ad78 aee7 f5aa 90bf
00000650: 20eb 4fbb 34d5 aebf 8c6b 4bbf 465c b9bf
00000660: 9bff ac84 6b7a 8dbf 29d6 6312 95b8 a4bf
00000670: a4d1 ba93 6b85 b73f f05b 0ca5 b167 a4bf
00000680: a050 70ca a695 b4bf a184 7192 19a5 c13f
00000690: 5ac6 6b23 be5a b13f 7c36 2314 d833 abbf
000006a0: 70db 050f 4f28 d4bf c262 a1fb 62fd b83f
000006b0: 50c9 7aa1 0287 b73f 6489 80a2 69fb ba3f
000006c0: be5a ec89 99af b5bf 8187 748e 2517 b4bf
000006d0: 5387 0ebe 9add c73f cbb2 5b16 371d 713f
000006e0: eb30 8cdd f16b af3f a84c aa89 3df3 bdbf
000006f0: aa80 67f0 2da4 c0bf 5cc8 5d8d 242c a5bf
00000700: fb04 368b d5b4 b6bf 7409 17c8 061e babf
00000710: 55b1 be2c 27da c13f fee8 30a1 af74 91bf
00000720: 9a02 6d7b e60f b7bf f362 87ee 3a28 a03f
00000730: dce6 0edc 5159 34bf d1f9 9d43 2636 a1bf
00000740: d679 c655 13e9 81bf 856d 594b ce0a c8bf
00000750: 447a bd88 d359 a2bf 4419 f50e b618 b73f
00000760: 1be3 1c9d c3a7 9a3f af4d fec1 7647 a83f
00000770: d3e7 aa76 d719 c43f e8de 7c46 2f80 b5bf
00000780: d562 c99d 5baa babf fd4d 41d9 8c5f a53f
00000790: 6b13 0aed 247f a7bf 4f57 e00e 0491 63bf
000007a0: ef0b cbc9 bc8a 8b3f 0da0 5e9f 0db7 c0bf
000007b0: 8c24 b55b 0f22 963f 59f1 5304 75b0 b43f
000007c0: f595 2cab d540 783f 6fbc 97a6 f604 bdbf
000007d0: ad63 389b b52f 923f 7cd2 b867 8653 c43f
000007e0: 197a 16e1 0d2e a33f a556 8bfe 6fb2 a5bf
000007f0: 5cdd e688 af38 3abf 39a5 23ca c215 c6bf

fc1.bias f8 [64]
0.04721870490354825 0.0740821351465754 -0.0550974456230247 -0.05490976257441108 -0.10355001228010391 0.049090420190181484 0.11988680362629453 0.08034867185167575
-0.0026768794738960817 -0.046863542000108484 0.1652995202313101 -0.1387015841668681 0.06489899681232073 0.19431842467348798 0.21527146215473006 -0.14259620341849105
0.034922696747952356 0.140873540524468 0.10318547732025393 -0.02873595627435988 -0.08669188980890871 0.2227371199471056 0.15285714060026317 0.06243301052323037
-0.16391812292571087 -0.05927899992170395 -0.08632008927607306 -0.10155582189660582 -0.0084505210416297 -0.06703580313925342 -0.11520810533440808 -0.03741086646343989
-0.0651576597206403 0.08424916428456014 0.06392896481000718 0.14071315470725368 0.0009360043030970153 -0.0597633824003217 -0.05006157796033037 -0.059194932057675724
0.02315538800858169 -0.14657466911465492 0.05945139028662249 0.11665330765371364 0.1794442615082455 0.002618985596724453 0.038322841324630756 0.0787340096161379
0.09249419420011837 -0.021148561354555048 0.21130139839107992 0.13734079788857909 0.21122417243359026 0.03454816660076644 0.10001156210309489 0.23067184586316003
0.12097577599835842 0.049551711841921336 0.17803937114988036 0.19987846375853868 0.10251832230523772 0.1327207851116615 0.1988273769897264 0.13948640369171436
00000000: 2af3 a3d2 0c2d a83f fb21 acfb 0bf7 b23f
00000010: 078b 167e bb35 acbf 05f8 f9e4 211d acbf
00000020: 6452 3eec 4082 babf 4d07 872a 6122 a93f
00000030: 3e02 cccc e6b0 be3f 9346 e105 bb91 b43f
00000040: 3f84 76b9 d2ed 65bf c5c6 8788 7ffe a7bf
00000050: 4f0f b8e0 8828 c53f 2536 f337 f9c0 c1bf
00000060: ea24 da7c 389d b03f b2ce 7d17 6ddf c83f
00000070: c1bb dbe8 038e cb3f deab 1ba7 9740 c2bf
00000080: 6256 d740 63e1 a13f 2450 b6e8 2408 c23f
00000090: 663c 830a 5d6a ba3f 81af ab61 f56c 9dbf
000000a0: 56c5 8e8f 7031 b6bf 1297 e362 a682 cc3f
000000b0: 464a eba1 d290 c33f d2b4 c634 38f7 af3f
000000c0: 7504 98e0 44fb c4bf 32b1 012c d159 aebf
000000d0: 69b4 6dc8 1219 b6bf a7aa c3f5 8fff b9bf
000000e0: 074d 10bc 814e 81bf 7ae9 2426 4229 b1bf
000000f0: 5139 a544 477e bdbf 6974 f35f 8427 a3bf
00000100: 1484 9521 2cae b0bf cc48 516d 5a91 b53f
00000110: 1e49 200d a65d b03f 95d5 ca7e e302 c23f
00000120: 31a7 73ef c5ab 4e3f 29c1 d059 4e99 aebf
00000130: 5c65 40d0 aba1 a9bf 47a6 8d52 cc4e aebf
00000140: f066 e4c8 0bb6 973f cd7d 2271 f5c2 c2bf
00000150: 5f2e f7a1 6970 ae3f 09ca 57bd fddc bd3f
00000160: 22ff 5091 07f8 c63f e371 922f 6974 653f
00000170: 37b1 5b2c 0d9f a33f fb5e 627c e927 b43f
00000180: 36cd 2813 b3ad b73f 0c45 80ed f7a7 95bf
00000190: 2229 d899 ec0b cb3f 5b43 ab1d 6294 c13f
000001a0: 340c 5dc8 6409 cb3f 32c5 5f1b 4cb0 a13f
000001b0: f664 7494 5b9a b93f 808c 0bb1 a786 cd3f
000001c0: 796b 85b9 44f8 be3f e4cb a48b d75e a93f
000001d0: 359c 3e7e fec9 c63f 3042 8214 9e95 c93f
000001e0: 50b2 8a09 a43e ba3f 73ea c6a3 fefc c03f
000001f0: 0834 dcec 2c73 c93f 3bd9 0bc3 b0da c13f
