model_Force_Prediction_1_subject.pt (torch_old, 20046 bytes, 6 tensors)

fc1.weight f8 [32, 5]
-0.4204385029930002 0.3046730929861514 0.42373349386651415 -0.03441675220760517 -0.0004644669407352962 0.10722354241200655 0.21849096248396824 0.19282092249192867
-0.4591758540613187 -0.008755501558351616 0.059299984155121846 -0.16984327470088342 -0.033576204598306555 0.1929905562111293 -0.32736873654769016 -0.5314689497665226
0.011080711766763547 0.5531665525364509 0.12718642287536852 -0.05511949010678676 0.4237066702523717 0.3171945400317514 -0.03447479548902777 0.055296038719328845
-0.7201970495609463 -0.24274905839321906 0.2744656492197133 0.2608835840882228 0.0895259699107044 -0.0644801874471896 0.03185760518623672 -0.20909049231556784
-1.1975750015620252 0.2426492331156443 0.3376222715392665 -0.20201299927691246 -0.06689109961522159 -0.7032576743616517 0.43469446862150146 -0.01713944102147373
0.20391810304039684 0.04612161742893149 -0.5051076855460995 0.13524338670444078 -0.11672386760592535 -0.735482933459931 0.5626795437124381 -0.3243167917746446
0.19169735499401563 -0.33232996618768 0.060147643089294434 -0.4380579888820648 -0.22843776643276215 -0.21745795011520386 -0.09337642788887024 0.029409457475406676
0.18658299180651267 -0.4325694081979073 0.3688526777453834 -0.3483445014104476 0.09270694276649025 0.2526278026746207 -0.5032872870484874 -0.05094516278453852
-0.04239440532210468 0.11566038733207736 -0.5565745216037881 -0.6880231811727275 0.05285058673536936 0.291045506958434 -0.26802382063705976 -0.5660478848348076
0.23369981357804748 0.10597524574411667 0.3405683561489105 -0.16265789468845449 0.1212788696857126 0.04076833397215242 -0.2524182280499336 0.25938565959130344
-0.007039603561269311 0.40030709656951147 0.15723290801184414 -0.9159879956577136 -0.01036391809759894 -0.21797929086543372 0.05824174987052675 0.09772874949119668
-0.004653409896689373 -0.042742978023834484 -0.31506502054735525 0.22095353494366454 0.6227911000303805 -0.06564380547580345 -0.38647638583949206 0.10429126024246216
-0.3178672790527344 -0.1919008195400238 -0.12276598811149597 -0.044549763202667236 -0.46326759297636216 -0.26692573908275 0.03183381286748175 -0.6146414515054784
0.3957989968436064 0.023801743984222412 -0.0851355493068695 -0.233514666557312 -0.4102874994277954 -0.41297468543052673 -0.15859659892129538 -0.2636766179716728
-0.026026022723736688 0.007283813468766792 -0.4273159212518413 -0.7075675933867572 0.051418051094638546 0.6284554456533723 -0.25472805179995206 0.22777660721325535
0.10934642198612722 0.14806554683898673 -0.011039060455004164 -0.07714652359116039 0.1352658861799641 0.35228238275773816 -0.17350465314953253 0.2545883935763739
-0.08304216839340213 -0.18388293389477464 0.22816970367634437 -0.32459943316737827 -0.5803326233798646 0.29415811121215124 0.06164510818377053 -0.15839349405573458
0.21742951396644927 -0.6971459541239677 0.14401085502325284 0.16397319394994503 0.06345514163215539 -0.34371799254789975 0.33777703245611307 0.11066889763938409
-0.09805244075898821 -0.06719888138132088 -0.8892645112500817 0.06435516450484799 0.33187917802356076 0.10351808163201935 -0.44654995417499704 0.050307524694954156
-0.15624420431300012 -0.10118890221414517 0.40647263912691595 0.1438624072225246 0.29514534073024246 -0.17161048960731393 0.1125355036403579 -0.5136919741313456
00000000: 7362 15e5 76e8 dabf 2030 9692 c37f d33f
00000010: 7e18 9816 731e db3f 2b18 5592 129f a1bf
00000020: 4f56 0e52 7670 3ebf 9455 0588 0073 bb3f
00000030: e38b 2b09 83f7 cb3f 6a2f 0b22 5bae c83f
00000040: 5199 131f 2363 ddbf 1159 d386 67ee 81bf
00000050: 62fa 3249 915c ae3f 5b96 24a7 6cbd c5bf
00000060: 1ed9 5879 e630 a1bf 158c ae1f eab3 c83f
00000070: 7e21 4d00 9cf3 d4bf 18c6 c22b cb01 e1bf
00000080: 17ba 3cf5 7bb1 863f ec52 8c57 8ab3 e13f
00000090: 005a 5f0b a547 c03f 13fe c22e 9f38 acbf
000000a0: fb2e f594 021e db3f 1efe f953 ea4c d43f
000000b0: 71c5 522e aea6 a1bf 3db5 cb2b c34f ac3f
000000c0: 5147 d1ae da0b e7bf 8182 77b1 6612 cfbf
000000d0: 788a d15e d890 d13f 3f38 6e0f 51b2 d03f
000000e0: 69be e888 2ceb b63f 6d5c 5308 c681 b0bf
000000f0: 82ba ced8 a34f a03f 0730 332d 7ac3 cabf
00000100: ee74 a367 4429 f3bf 42ca 504c 210f cf3f
00000110: 7464 aa71 9a9b d53f 5a6f a1dc 8fdb c9bf
00000120: aba8 3d6d c61f b1bf 006b 013d 1681 e6bf
00000130: 07d0 9ebf 08d2 db3f ecc3 a26a 008d 91bf
00000140: 6d78 cf07 fd19 ca3f 8ee4 fdac 409d a73f
00000150: b71e cc97 d729 e0bf 5bab 72c1 a74f c13f
00000160: 88b3 078a 9de1 bdbf e13f 3f81 1389 e7bf
00000170: a2f0 cb87 7801 e23f b1ce 8d37 9bc1 d4bf
00000180: 74e9 36f7 8989 c83f 9570 10e8 e444 d5bf
00000190: 0000 0000 accb ae3f 0000 0060 2409 dcbf
000001a0: 0000 00e0 723d cdbf 0000 0080 a9d5 cbbf
000001b0: 0000 0080 84e7 b7bf 7d2c 3348 831d 9e3f
000001c0: 563f e693 f3e1 c73f 0d72 5d99 37af dbbf
000001d0: 3957 fd42 489b d73f b427 53bc 464b d6bf
000001e0: f651 4b67 a4bb b73f c40f a3cd 0d2b d03f
000001f0: c7b4 cbf0 ed1a e0bf 1e15 1900 7c15 aabf
00000200: 0d9b c830 b8b4 a5bf edb1 084d eb9b bd3f
00000210: 5867 025f 75cf e1bf 1edb c030 4904 e6bf
00000220: 31a5 346b 3b0f ab3f 9230 8255 7da0 d23f
00000230: 5cd9 0b62 4d27 d1bf 32bc 2a74 101d e2bf
00000240: c812 3320 e0e9 cd3f 4913 a896 3121 bb3f
00000250: 3f92 ed37 dfcb d53f 88c2 0f51 f9d1 c4bf
00000260: a3f8 feca 210c bf3f b2df 3e4a 96df a43f
00000270: 07e1 98c8 9e27 d0bf 12bf 3f4f c699 d03f
00000280: 7cc8 2831 8fd5 7cbf 64db 07a8 a19e d93f
00000290: 4607 e23a 3520 c43f 6d1c 9c0e c64f edbf
000002a0: 7706 4d8a ad39 85bf a274 bcd2 bee6 cbbf
000002b0: bd54 e9d5 dcd1 ad3f 1f94 f156 c004 b93f
000002c0: 707c 2335 740f 73bf c9f5 7d59 68e2 a5bf
000002d0: 4b53 d779 062a d4bf 8c62 4297 3448 cc3f
000002e0: e6d9 db99 e7ed e33f 9c1c b44d 08ce b0bf
000002f0: 62d7 7673 07bc d8bf 0000 0000 d5b2 ba3f
00000300: 0000 0000 f057 d4bf 0000 00c0 3490 c8bf
00000310: 0000 0080 976d bfbf 0000 0000 3acf a6bf
00000320: cd53 481e 2da6 ddbf ed8b f4b1 4f15 d1bf
00000330: 9d7b 5882 854c a03f 8b6c 9f8c 24ab e3bf
00000340: c8e7 ce50 c554 d93f 0000 0000 7c5f 983f
00000350: 0000 0080 71cb b5bf 0000 0000 cfe3 cdbf
00000360: 0000 0080 2642 dabf 0000 0060 2d6e dabf
00000370: 6fd8 cfb2 e44c c4bf 4920 bae4 13e0 d0bf
00000380: 270b c6d1 90a6 9abf 535e 37ca a1d5 7d3f
00000390: a38d b5e0 2459 dbbf 0dc7 29cb 64a4 e6bf
000003a0: 6945 c07f 7753 aa3f fd60 4298 4e1c e43f
000003b0: 92b1 f6e2 764d d0bf a52b 63ab c827 cd3f
000003c0: b972 5d8a 20fe bb3f 2b3d abd4 cff3 c23f
000003d0: 91fe 0f9d a59b 86bf f2f9 d2e3 dfbf b3bf
000003e0: d225 b47e 6450 c13f 30b1 3968 cb8b d63f
000003f0: 8f93 7d85 6635 c6bf 4b82 161e 2d4b d03f
00000400: 3d47 7065 4042 b5bf 656f afd9 7989 c7bf
00000410: 282c 9d33 aa34 cd3f fc41 70b3 3cc6 d4bf
00000420: 29fd c6b8 1592 e2bf b598 e08a 7cd3 d23f
00000430: 5c21 3797 f28f af3f a92c 6fee 3c46 c4bf
00000440: c8e5 d5f5 bad4 cb3f 7c09 3008 054f e6bf
00000450: e003 4c9c f26e c23f 54c4 b7d8 12fd c43f
00000460: 51ba 129e 983e b03f 618f 42c0 79ff d5bf
00000470: bb4a ef8e 239e d53f 9ca7 0b00 cc54 bc3f
00000480: 2f53 5afa f619 b9bf 6e4d dc25 f233 b1bf
00000490: 3400 2ad9 da74 ecbf 8684 e07e 9479 b03f
000004a0: 5b69 f529 823d d53f 6f78 2737 2980 ba3f
000004b0: f38f 4d42 4694 dcbf f275 9d6a e8c1 a93f
000004c0: 5860 db61 cfff c3bf 5c57 ba11 84e7 b9bf
000004d0: e335 f1d0 a503 da3f 8381 1257 156a c23f
000004e0: e833 8048 a9e3 d23f 7bc9 4120 55f7 c5bf
000004f0: af33 c673 20cf bc3f ed93 a326 2a70 e0bf

fc1.bias f8 [32]
-5.821523386784593 1.7973428165070582 4.974562132518659 2.9550300087607084 0.7969480275067128 2.8378129153010416 -0.1960996230245989 -1.9571362896199629
7.267363570230703 -0.6056118464317289 -0.42879897356033325 0.922241727595938 5.166391392476753 2.5346177172131625 2.5360691688102506 6.0245941458657075
3.9414350127296642 7.624449773088104 -2.359883202381991 -0.22230395674705505 0.6488644782997744 0.19098621606826782 0.23608352272000882 4.665024581875493
-8.328268167617072 5.295331944419324 -4.373221171156003 -6.699762017630768 1.1215723438630547 1.289024335010866 0.7569063435705222 -7.023181149521098
00000000: 528e 3c6d 3d49 17c0 d192 898a eac1 fc3f
00000010: c359 9c9d f3e5 1340 509b f2c5 e6a3 0740
00000020: e718 5826 9980 e93f 3c13 fb41 d7b3 0640
00000030: b304 d3dd ca19 c9bf 6cb8 5b24 6e50 ffbf
00000040: 7421 79c1 c711 1d40 89d2 4f18 2c61 e3bf
00000050: 0000 0040 7171 dbbf bafe 6015 0183 ed3f
00000060: 1f18 5481 62aa 1440 7857 5aa7 e546 0440
00000070: b078 e3a1 de49 0440 42aa 3035 2f19 1840
00000080: b3dd 7714 0f88 0f40 d2a1 e5c2 6f7f 1e40
00000090: 1ae2 c471 0ae1 02c0 0000 00c0 7474 ccbf
000000a0: 1fad 3a70 7fc3 e43f 0000 0080 3c72 c83f
000000b0: 0e7c 9a20 fc37 ce3f e9c3 3834 fca8 1240
000000c0: 6277 e8c3 12a8 20c0 f8fa 4a7f 6b2e 1540
000000d0: cf28 d1b0 2d7e 11c0 18d4 126a 8ecc 1ac0
000000e0: 93d6 8fd7 f5f1 f13f c6ea 29fb d79f f43f
000000f0: 91a6 f8a6 9338 e83f a54e 9ccc bc17 1cc0

fc2.weight f8 [64, 32]
-0.0028892036458005544 0.23557510520210176 -0.5183829075655576 -0.034455268975752865 0.416654417179116 0.1478962007114773 0.14464350897007136 -0.17129559614585696
-0.21836070705413047 -0.15413196357425554 0.043030545115470886 -0.017872176289730087 -0.05408562741630363 0.46689081371617813 -0.0964747176109248 -0.016993862541635353
0.3113810375308189 0.7938372359502468 0.1325142646801737 -0.1591210961341858 0.03489013937690528 0.04169927537441254 -0.07785692944996132 0.07698728116019443
-0.012668549861084587 -0.48762445563188667 0.06902645697252907 -0.003393522205627551 0.0372325875474114 -0.816596838825077 -0.1369538335240245 -0.45592907215578266
0.3819965611268904 -0.3695358911148024 -0.15141561233581757 0.1456893505529005 -0.1234471099596787 0.2584950073972217 -0.04436371375486331 -0.32128152630295204
-0.0518135080087698 -0.2405344674616708 -0.00306113064289093 -0.20385468284212985 0.21466621663370944 -0.635696573144217 -0.5768680907826862 -0.055144056597143616
-2.606981602240926 -2.386080319149851 -0.16858578898937948 0.08317668735980988 -0.10685415010506878 -0.02976374328136444 -0.015548344532224971 -0.9338670736203788
0.07485940416049311 -0.6573632184090015 -0.18632816939357577 0.16887067904053854 0.044850854651671705 -0.29584783826187894 0.1205130519664974 -0.2872055722761651
-0.21928997647204956 -0.3028590455839609 0.1549024245102325 0.7602130962127175 -0.1626826816224076 -1.2607072995930642 0.4724821539139254 0.2972716642176307
0.35314358883740404 0.5451993694957424 -0.1489807665348053 -0.7972602364389839 0.21716573860812477 -0.46354904140403186 0.17518248636356712 0.24763941659755928
-0.11477343433810343 0.7921453189303703 -1.4437168589702047 -0.038020193576812744 0.5167006252215004 -0.12299945950508118 0.00814063847064972 -0.361946481966191
-0.002189246226115055 0.05430591341922762 -0.4491194124187547 -0.3434373658413021 -0.21892229335577434 -0.19910129297539997 -0.7256491146870758 -0.6333989979433376
-1.5738164451504395 -0.05180931239381874 -0.47291625546855137 -0.29803371066240386 -0.08948122793573961 0.4151039822720219 -0.38024941683951735 -0.3346701681551132
0.14709676134542468 -0.4343275274874648 -0.09089376777410507 -0.18248969807630375 0.2910195693659698 0.23331923556086462 -0.04511617945424158 0.2981491606542903
-0.3782075548791144 -0.012895341976213299 0.0012308491468418531 -0.1028442308306694 0.20992952466577297 0.07532362639904022 0.11355892217645036 -0.2830415549074696
-0.788120771783049 0.046546403225997436 -0.11593835503438266 -2.524880084578454 0.00594687738898016 -0.5628756527956031 0.03387525050806693 -0.8104059364607303
-0.6113104985233261 0.13251558831689783 -0.362218577666857 0.2524131952966095 -0.626864587129137 -0.3682626603663624 0.19420679749461328 0.22220145116123516
0.4127556743331392 0.2747156662198479 -0.1497916430234909 -0.08305394166238217 -0.039649166377163564 -0.4217919886543343 0.06364537278930814 0.4770890164193842
-1.657122538517387 0.7228759093187452 -0.250318985126906 -0.11040564626455307 -0.30086501606619476 0.07270871102809906 -0.03438388765827621 -0.057079797307464195
-0.003611740139236493 -0.07948297514288641 0.08855242661645175 -0.8361918125004623 -0.38079182017773505 0.20866419275141354 -0.20310812443174597 0.007646833612822585
0.22911087238692363 0.06307170805120872 -0.3463330403669491 0.18802782345671132 -0.7485415866762254 0.2593004916067705 -0.36563735949711423 -0.22078398227650603
-0.26239743561041834 -0.32384329236794795 -0.043825387954711914 0.007017656337182166 -0.11923417884828219 -0.31184333240306733 -0.09336963828674293 -0.3326617636925789
-0.5409599807348275 0.9362863307751779 -0.49932942896357296 0.1572069674730301 0.23805006095145764 -0.11790995299816132 -0.12900462604595905 -1.375391813030672
0.37442448167657566 -0.15324199015112916 0.00019405571802995429 0.045035899877330636 -0.11701685545202768 0.01803119826415439 -0.18928330719227168 -0.1694182028688833
0.014514114206589143 -0.11239267684450269 -0.32470311184216377 -0.3237768576106811 -0.7969734384339601 -0.4222125075847559 -0.5185946866156363 0.5410066951305769
0.33079942945658 0.18981220394382345 0.058998048305511475 -1.2014913569034806 -0.5752545599285578 -0.18249056316786275 -0.30655939034328283 0.5474366970661576
-0.04864751870727589 0.01594671407968806 -0.155366592171039 -0.03429912030696869 0.37956087268561517 -0.07489819079637527 0.03521305322647095 0.0874134994502642
-0.5308285577946275 0.43626542313131783 -0.3997600866113268 -0.22534733160385167 0.26830552565959964 -0.6592303859273555 -0.06386623713702591 0.08732194680381708
-0.6516022236967982 -0.606621634031965 -0.6332069249810924 -0.4708974998755268 -0.6533952567887926 0.3898683548854173 -0.3309818430950678 -0.5973042466657894
-0.19123352606523597 -0.0760977100047935 0.11975087225437164 -0.13118732237559189 -0.046200549145002344 -0.058501577332061405 -0.6273481174561082 -0.48012775431570903
-1.5481226786056232 -0.24579902193244452 -0.7517932697608084 -0.06851918250322342 -0.15571181545376053 0.10010088980197906 -0.03017297387123108 -0.011470198037123866
-0.312702925796722 0.23750700690781235 -1.6762124251242767 -1.3694940585913662 0.24386548446809586 -0.8848065190196573 -0.5574046724487387 -0.21833049899346785
00000000: b641 7265 19ab 67bf f721 4c36 5327 ce3f
00000010: 2f95 59c0 9796 e0bf dafa d9fa 1ea4 a1bf
00000020: e82a e149 77aa da3f ca14 a140 43ee c23f
00000030: 3375 4db2 ad83 c23f 8398 b29b 03ed c5bf
00000040: e0b3 c35f 3ef3 cbbf a1eb 689f 98ba c3bf
00000050: 0000 0080 1908 a63f 0fe2 b072 154d 92bf
00000060: 9092 df81 1cb1 abbf 1eaf ed01 8ae1 dd3f
00000070: 2c9e 072d 91b2 b8bf 9a6b 65cf d666 91bf
00000080: ca85 32bb aaed d33f 681b d858 1d67 e93f
00000090: cc04 8738 3af6 c03f 0000 0080 145e c4bf
000000a0: e943 27cf 1edd a13f 0000 0080 9b59 a53f
000000b0: 0d2b c185 6eee b3bf 747e ca3e 70b5 b33f
000000c0: 8c94 bafa f7f1 89bf e7cc 6a34 3d35 dfbf
000000d0: b879 41c7 b7ab b13f 7c83 865c bbcc 6bbf
000000e0: 2b22 b953 2610 a33f 7ca9 98b1 8f21 eabf
000000f0: ed14 0606 b487 c1bf fb19 8d21 f12d ddbf
00000100: 8a5d 4eb4 a172 d83f a152 c2dd 79a6 d7bf
00000110: fc06 8b37 9661 c3bf 2206 00da f2a5 c23f
00000120: 5a02 10d4 3a9a bfbf 75d2 bca4 2e8b d03f
00000130: b898 6937 d7b6 a6bf dced 1164 e08f d4bf
00000140: bc03 c7d4 4c87 aabf ea81 a75b d5c9 cebf
00000150: 0000 0000 a813 69bf 55c1 f805 e917 cabf
00000160: 00b9 ffbd 2e7a cb3f 8aad fa56 a057 e4bf
00000170: 2690 0012 b475 e2bf 3198 4e7f d73b acbf
00000180: 0a30 972b 19db 04c0 d805 4347 b116 03c0
00000190: 94ce 2319 3894 c5bf 0000 0040 114b b53f
000001a0: 2da5 2428 cb5a bbbf 0000 0000 637a 9ebf
000001b0: 3cca 2e7a cfd7 8fbf 1358 8033 3de2 edbf
000001c0: 62d8 aa64 fc29 b33f 721e 9596 1e09 e5bf
000001d0: f439 eff8 99d9 c7bf 20c0 dded 8d9d c53f
000001e0: 9f68 daf3 b0f6 a63f 1355 7bc5 2bef d2bf
000001f0: efef ef80 f1d9 be3f 0ded 097b 9361 d2bf
00000200: 3adf a4a6 b111 ccbf 392d 05e8 0a62 d3bf
00000210: ecd8 abb7 d7d3 c33f 4b2f 476a aa53 e83f
00000220: 1fcf 983e c9d2 c4bf 7c4a d96a db2b f4bf
00000230: af40 c0c9 253d de3f e3e6 f5ba 7f06 d33f
00000240: 7251 3691 e799 d63f ce16 b9f2 4572 e13f
00000250: 0000 0040 cd11 c3bf 6303 3de6 2783 e9bf
00000260: 2a19 9140 16cc cb3f b209 3b99 c9aa ddbf
00000270: efb9 e134 616c c63f 3857 befd a5b2 cf3f
00000280: ab87 eeb2 ca61 bdbf a588 cf23 4159 e93f
00000290: bd5f 5fd9 7619 f7bf 0000 0000 6277 a3bf
000002a0: 67c5 e4bf cf88 e03f 0000 0080 e47c bfbf
000002b0: 0000 0000 0aac 803f 5f9c bc93 212a d7bf
000002c0: 0db4 359e 2eef 61bf fedf 3a14 fccd ab3f
000002d0: 1f96 1559 5fbe dcbf 63d1 a0b7 e0fa d5bf
000002e0: fe07 2a4d a505 ccbf 1ad8 f5b2 267c c9bf
000002f0: 9a79 fe7d 8438 e7bf ba8b aff9 cd44 e4bf
00000300: f63f 1d27 5a2e f9bf 762a b80c c086 aabf
00000310: 49fd be8a 4244 debf a1a2 19fc fb12 d3bf
00000320: 3505 97e3 3de8 b6bf 7b0d 134b 1091 da3f
00000330: eb85 69a6 0156 d8bf f412 cb6c 3c6b d5bf
00000340: 2bbe a911 11d4 c23f bdea 93af 05cc dbbf
00000350: 0000 0060 d044 b7bf 1f1d 8c8a d25b c7bf
00000360: df0f 3b8b 10a0 d23f 377d 219b 67dd cd3f
00000370: da88 8dc6 7719 a7bf 00c3 9537 e014 d33f
00000380: 3894 d375 8d34 d8bf aaf4 7780 df68 8abf
00000390: 0d69 3f35 8e2a 543f 0000 00e0 ff53 babf
000003a0: c4c0 737d f8de ca3f 0000 00c0 6848 b33f
000003b0: 90b7 ea90 3212 bd3f f723 6f53 5a1d d2bf
000003c0: 3e68 830d 4938 e9bf dd44 341f eed4 a73f
000003d0: a086 39d3 22ae bdbf 7cb0 6c54 f432 04c0
000003e0: 1445 62be c05b 783f b618 0fcd 1303 e2bf
000003f0: 8ee3 26ca 1858 a13f aea8 326e d8ee e9bf
00000400: 177e db08 db8f e3bf d900 0453 45f6 c03f
00000410: 614c 45d4 962e d7bf db2d b8ac 8927 d03f
00000420: 9aaf 9752 460f e4bf 8522 a78c 9d91 d7bf
00000430: ae3b f3b1 c4db c83f 513d eede 1871 cc3f
00000440: def3 9fc6 966a da3f 023d 8704 f194 d13f
00000450: 0000 0060 5f2c c3bf 346b 3eeb 0543 b5bf
00000460: 14a2 ce41 e54c a4bf 020d 3fd3 a3fe dabf
00000470: 87fb ab2a 104b b03f fd54 b35e a088 de3f
00000480: ca58 46ec 9283 fabf 83e3 b2a8 cc21 e73f
00000490: ba07 aceb 3905 d0bf 0000 0060 8b43 bcbf
000004a0: d4f2 2057 5f41 d3bf 0000 00c0 099d b23f
000004b0: 38d6 00d2 c39a a1bf e64e 652d 9039 adbf
000004c0: 1111 f338 5e96 6dbf 9ad5 d30a ff58 b4bf
000004d0: d591 4c30 5fab b63f 1beb fb54 15c2 eabf
000004e0: 12da 8fa7 e45e d8bf fb55 db1d 82b5 ca3f
000004f0: 5c3d fe6f 72ff c9bf fa77 8f44 4952 7f3f
00000500: b4a9 074c 8153 cd3f 45ff 61ab 7725 b03f
00000510: 6c9e 790e 522a d6bf 9408 3eb4 4b11 c83f
00000520: 010d 4f7c 0df4 e7bf 586b d216 6198 d03f
00000530: ff18 4f3d 9a66 d7bf b6da ad47 a642 ccbf
00000540: 9710 209d 1ecb d0bf 94f4 6f37 d9b9 d4bf
00000550: 0000 0000 4870 a6bf cd7b 67c7 8bbe 7c3f
00000560: 6c02 b892 2186 bebf af65 89bc 3df5 d3bf
00000570: 5783 e196 12e7 b7bf 991d ec90 544a d5bf
00000580: 906d 364e 8b4f e1bf 18e1 4bc0 0ef6 ed3f
00000590: b70c d56b 03f5 dfbf 0000 00a0 5b1f c43f
000005a0: e474 4ca5 6c78 ce3f 0000 00c0 582f bebf
000005b0: 9b36 f33c 3983 c0bf 3572 82d8 9a01 f6bf
000005c0: 65d9 e719 92f6 d73f d459 09fc 6e9d c3bf
000005d0: 1e1a d2ec 6d6f 293f 27f6 3c0a f20e a73f
000005e0: b149 3f0f d1f4 bdbf 50b0 683b c576 923f
000005f0: 4fe6 0877 6f3a c8bf 0fa0 55e4 7eaf c5bf
00000600: d81b c86e 93b9 8d3f ae66 5b37 c4c5 bcbf
00000610: a560 918f efc7 d4bf f6ed a891 c2b8 d4bf
00000620: 4b58 bb70 ce80 e9bf b679 029c 8705 dbbf
00000630: c697 5ce2 5398 e0bf 8317 d045 ed4f e13f
00000640: 494b c35e d12b d53f ff02 292c c44b c83f
00000650: 0000 0000 fe34 ae3f db3b 4500 4f39 f3bf
00000660: af93 3840 7c68 e2bf 553a 51cc d95b c7bf
00000670: 1c97 f346 ab9e d3bf e5f0 d0f6 9984 e13f
00000680: 5e33 c2db 53e8 a8bf bfbe cddd 5554 903f
00000690: 98fe 2170 0de3 c3bf 0000 0080 a78f a1bf
000006a0: f3a8 c1af b94a d83f 0000 0020 872c b3bf
000006b0: 0000 0000 7207 a23f 0f28 5e29 bb60 b63f
000006c0: 3c58 f02b 8cfc e0bf 0b60 2ecf c5eb db3f
000006d0: 4279 8f54 ab95 d9bf 505d bd6d 2ed8 ccbf
000006e0: 08d2 82f0 ea2b d13f 65cc 8252 6a18 e5bf
000006f0: 9a75 d2a7 8959 b0bf 8ed5 be29 bb5a b63f
00000700: 7eea 18e8 ecd9 e4bf eed3 e6c5 7169 e3bf
00000710: e39f 4c2b 3b43 e4bf 83f2 6e44 2f23 debf
00000720: d09e 682b 9de8 e4bf a79a 7e66 9af3 d83f
00000730: 8d70 ea77 ce2e d5bf a020 a6cb 1d1d e3bf
00000740: 76aa 2c16 577a c8bf 8165 c5b7 237b b3bf
00000750: 0000 0040 fea7 be3f 8661 a005 bfca c0bf
00000760: 1b22 452f 99a7 a7bf 40ad cf32 ebf3 adbf
00000770: fecb f55b 3c13 e4bf 7106 acc2 69ba debf
00000780: c3e9 2c49 1cc5 f8bf 6c58 4ba4 5776 cfbf
00000790: ef37 5fc2 b00e e8bf 0000 0020 798a b1bf
000007a0: 9bc2 7c61 5dee c3bf 0000 0040 36a0 b93f
000007b0: 0000 0000 aae5 9ebf 6bb0 95eb af7d 87bf
000007c0: 9444 ea21 5303 d4bf 0cb5 9e2d a166 ce3f
000007d0: 00ec b01e c4d1 fabf a975 1b9a 72e9 f5bf
000007e0: 10f3 34f4 fb36 cf3f d543 cfc2 5550 ecbf
000007f0: f2c1 d952 42d6 e1bf 22ba 72f8 40f2 cbbf

fc2.bias f8 [64]
-4.616173951649443 2.6831518865511588 0.2505949258267084 1.8941621068292325 0.845253592182552 -3.948521598661694 1.6830447835194402 0.23407540910719252
-0.5208791695046425 -0.5486047922765344 -0.004128315334603642 -0.6069954930959285 2.0148439127835007 3.120477904984743 -1.0805598487645005 0.5494669556237253
0.6512286191828554 -0.5715475466645905 3.078273168869186 3.5999472265729153 2.0811358244575215 2.0782978857758536 -0.8801848060381209 2.3081255255976814
1.218824367367254 -0.5398148190509934 -0.23127047197161738 1.789046078810174 0.11115358320911939 -0.01928116564622362 -0.13239950754807883 1.4441461349498328
1.0734583490271326 -0.7888707887748612 -0.853239469079537 1.8532371078337673 -5.791054322912303 -0.19939217428252135 3.0990510237758166 2.641322133754021
3.6392229717338664 0.9206749723857959 -0.28703203334761657 1.0179559644431393 -1.1172866393295475 -0.7657291781223208 -0.2076560207714625 4.558265470032728
-0.6495284353713263 -0.9992035983070896 4.1012491747955355 -3.4678893764628436 -0.4588507213759827 -6.531707147442271 0.0812559107448113 4.043726561339702
3.8725398582833037 4.912535359492657 2.439852319723751 -0.1489766644528837 -2.523353504924057 -0.21320880354829777 2.6512524851458124 -0.096623801224486
00000000: ffec eb4d f676 12c0 e180 1756 1877 0540
00000010: 5408 be4c bf09 d03f d576 e2ec 7c4e fe3f
00000020: c504 e842 510c eb3f b469 ee7d 9296 0fc0
00000030: d8b5 ee5d c0ed fa3f 25e4 74d9 2ef6 cd3f
00000040: 2315 c6ca 0aab e0bf f935 28a3 2b8e e1bf
00000050: de5c 9835 dae8 70bf 3453 f5cf 816c e3bf
00000060: 3799 3f7c 661e 0040 8966 ae1e bdf6 0840
00000070: 1c07 bd1f f949 f1bf e45e 94b9 3b95 e13f
00000080: dc81 b366 ddd6 e43f 0612 a114 1e4a e2bf
00000090: 5b94 e3ae 4da0 0840 10a7 ab21 b1cc 0c40
000000a0: e6a1 048a 2aa6 0040 a006 56a4 5aa0 0040
000000b0: abd5 8b53 792a ecbf f009 fc83 0a77 0240
000000c0: 5e90 d6fa 4d80 f33f ab0b 37ba 2946 e1bf
000000d0: b604 d354 459a cdbf 836d f8c7 ee9f fc3f
000000e0: d864 b7ac 8f74 bc3f 6064 841f 71be 93bf
000000f0: e876 7691 77f2 c0bf c111 44fa 381b f73f
00000100: f608 6ba9 e22c f13f 1cd9 d1f3 6d3e e9bf
00000110: e54b ebdb bc4d ebbf 1213 1ef4 dba6 fd3f
00000120: 3112 f924 0a2a 17c0 e195 cfc9 ae85 c9bf
00000130: 0505 5e43 dbca 0840 4a65 b57f 6d21 0540
00000140: 5397 f3ee 201d 0d40 f890 145c 2b76 ed3f
00000150: 2779 089b bb5e d2bf a0d2 8031 8c49 f03f
00000160: b8d9 82f4 67e0 f1bf 401b 347a da80 e8bf
00000170: 74f5 03f5 7894 cabf 461b 81f1 a93b 1240
00000180: 9dbd 77db efc8 e4bf 77c8 18d3 79f9 efbf
00000190: aaf9 19dd ad67 1040 126e 10c9 3cbe 0bc0
000001a0: 1c93 836a cf5d ddbf 8a41 a5d6 7720 1ac0
000001b0: e772 41f7 2fcd b43f a7ae dba7 c62c 1040
000001c0: 2044 5e2d f6fa 0e40 b7db 55ab 6fa6 1340
000001d0: 1744 024b d184 0340 549d d8d6 aa11 c3bf
000001e0: 992a 5ff6 d32f 04c0 f9c7 3a13 6d4a cbbf
000001f0: b31e e9dc c335 0540 403d 4662 56bc b8bf

fc3.weight f8 [1, 64]
-0.04509565075502104 0.08601321988018214 0.07928325940069696 0.2366075348862104 -0.061064011154666094 -0.13188408741446744 -0.11947134535701963 -0.28139016190370725
-0.013014156274800808 0.11945227279947454 0.06123522743968888 0.10043500292051256 -0.07912857809148532 0.06383956152254129 -0.19081177328950683 -0.3179829039917175
-0.08963950155974686 -0.010166150378970396 0.10011239578902177 -0.12528577197537155 0.10943376611534462 0.49124099838745267 -0.16013446100248868 -0.13969254418161126
0.14429744235085537 -0.07574016924799946 -0.0282611793717448 -0.03261232504210126 0.026732425959653045 0.007383885110284366 0.026323956499453318 -0.10486825204030815
0.0024366653716901905 -0.07823198492127482 -0.11461526577536975 0.11361327832376003 -0.3489829145098076 -0.014604809341920731 -0.12126713745673585 0.10203068471375415
-0.6849018094747675 0.17246680634898426 -0.050558057592290644 -0.013810476676077191 -0.009380950763611146 -0.10185163743437659 -0.045627426104269224 0.13203214368662053
-0.26147788416870804 -0.009993092260492775 0.13894772153319612 -0.10704999718970026 -0.025423066647600284 -0.38171683459437145 0.07860076298354632 0.12930372818399957
-0.17823890616616211 0.1709328676963056 -0.306507704506734 0.2976798755108493 -0.25779932288905005 0.023382002913445308 0.09469930015217996 0.02901416666267638
00000000: d98a 5ef2 c616 a7bf cdb6 685e f604 b63f
00000010: 130c 3f5e e84b b43f e666 29dc 2749 ce3f
00000020: c165 be35 c843 afbf ac6a 27e9 93e1 c0bf
00000030: d715 1e91 ac95 bebf 6eb9 b2e1 4b02 d2bf
00000040: 29b3 ae7c 2aa7 8abf 064b 1b95 6c94 be3f
00000050: 4de4 6e46 395a af3f f1d1 eabc 1bb6 b93f
00000060: 28f8 143f c541 b4bf cd27 ee1c ca57 b03f
00000070: 742f fc2a 856c c8bf dd37 55f7 d459 d4bf
00000080: 8ffc a047 9df2 b6bf c02d 3b9b fdd1 84bf
00000090: e18a d649 f7a0 b93f 22e8 a43a 5d09 c0bf
000000a0: 0124 8bee d903 bc3f e9d2 a115 7e70 df3f
000000b0: 7af0 7b38 497f c4bf a8a5 60fe 71e1 c1bf
000000c0: 1f8d e5ad 5678 c23f cbe5 e92d b563 b3bf
000000d0: 2896 97a4 7ff0 9cbf 9733 010b 90b2 a0bf
000000e0: b532 f5bc be5f 9b3f 39b7 0e91 903e 7e3f
000000f0: c7df 10d1 aaf4 9a3f f1dc e650 a5d8 babf
00000100: 1185 a5c2 0ef6 633f 39f0 bce8 0207 b4bf
00000110: d9a7 2012 6d57 bdbf a2b9 ca82 c215 bd3f
00000120: 3dac 2b6f bc55 d6bf ac25 e753 20e9 8dbf
00000130: a5ca 74f5 5c0b bfbf 3cb8 08d6 ae1e ba3f
00000140: 8b4a 1533 b7ea e5bf c80c 756e 6413 c63f
00000150: 07fc d0e7 bee2 a9bf 15cf 53cd aa48 8cbf
00000160: 107a e1e5 5136 83bf 541f d3eb f212 babf
00000170: b744 d65d 7a5c a7bf c0d0 93e5 6de6 c03f
00000180: ad70 48bc 0dbc d0bf 20cd 8e23 4277 84bf
00000190: 8c5d ebf7 09c9 c13f ac76 f7ec a067 bbbf
000001a0: fb0a 431f 8108 9abf 0297 3a72 0c6e d8bf
000001b0: 7e79 74fa 2d1f b43f 238c e649 068d c03f
000001c0: a4e2 6d50 88d0 c6bf a297 48d2 20e1 c53f
000001d0: 6505 b57d d29d d3bf d2c5 7fe4 2f0d d33f
000001e0: 9052 2fbb c87f d0bf 091a 50a7 73f1 973f
000001f0: 4792 1b9d 363e b83f b45f bfc3 e3b5 9d3f

fc3.bias f8 [1]
2.4730718384672055
00000000: 7f00 57e3 d9c8 0340
